checkpoint_actor.pth (torch_old, 549275 bytes, 14 tensors)

fc1.weight f4 [400, 33]
000000 33 f7 25 be ba df 9e bc fd 54 e9 3c aa e2 b6 bc
       -0.1620758 -0.01939379 0.028482908 -0.022324879
000010 a5 c9 42 bc 9d c5 1e bd 06 70 d7 bb 9d 1b 74 bc
       -0.011888896 -0.038762677 -0.0065746335 -0.014899162
000020 aa 5c 83 bd 8b f9 cc bc 4a da ed bd 09 27 a9 3c
       -0.06414159 -0.025021335 -0.11613901 0.020648496
000030 0a 13 d8 bb d5 57 65 bd 1e b0 1b 3d 17 cf 3b bc
       -0.0065940665 -0.055991966 0.038009755 -0.011462948
000040 4b 17 91 3d eb 78 d4 3b 3f 97 b5 3c e6 c4 3e bd
       0.07084521 0.006484141 0.022166846 -0.046574496
000050 0a 0e 17 bb 97 2d 0a bc 2f 55 5b bc a5 09 1d 3d
       -0.002304914 -0.008433721 -0.013387009 0.038339276
000060 24 d1 da 3d e0 6b 2e bc 9b 3e 24 3c 24 d5 3f 3c
       0.10684422 -0.010645837 0.010024692 0.0117085315
000070 45 7b 98 3d 00 38 84 bd 8b 71 74 bd 14 a6 41 bc
       0.07445387 -0.06455994 -0.059678596 -0.011819381
000080 47 54 5c bd 99 a6 f2 bd 95 36 5a 3d 93 7a ae bc
       -0.05379131 -0.11848182 0.05327471 -0.021298682
000090 1d 9b 86 bd 05 dc f4 bc 35 1d 47 3d 3b d6 ec 3c
       -0.06572554 -0.02989007 0.04861184 0.028910747
0000a0 5a 39 94 3c 18 66 30 3d 1f e8 43 3c 59 ca 19 bd
       0.018093754 0.043066114 0.011957197 -0.03754649
0000b0 52 e4 2c 3d 28 c6 33 3c 3a d7 10 3b 7b 03 0a bd
       0.04220993 0.010972537 0.0022100941 -0.033694725
0000c0 2a 89 dd bc f5 e5 9b 3d c3 b8 4a 3c cb e9 cf 3d
       -0.027042944 0.0761222 0.012373152 0.10152014
0000d0 85 79 56 bd 34 77 7e bd 88 72 5d bd 0e ea 6c 3c
       -0.052361984 -0.0621254 -0.054064304 0.0144601
0000e0 d5 0c 22 3d be 28 0b 3d ee 8d 02 3d 05 39 b5 3d
       0.03956302 0.0339744 0.031873636 0.08848766
0000f0 2d 8b f7 3d 69 76 35 bd 32 cb 1c bd 76 9a 80 bd
       0.120870925 -0.044302378 -0.03827972 -0.06279461
000100 ea e9 38 bd 26 ae d5 bc 63 f2 69 bd 30 ea c6 bc
       -0.045144953 -0.026084017 -0.057115924 -0.024281591
000110 e1 18 db 3d d6 9c 84 3b a1 fa 30 3c e4 2f 96 bb
       0.10698105 0.0040470166 0.010801942 -0.0045833457
000120 44 53 66 bd 33 a9 af 3c 8c 91 ed bd f8 c1 a6 3d
       -0.056231752 0.021442985 -0.116000265 0.08142465
000130 75 19 06 3e e6 a1 45 bc a0 11 1e 3e e2 ce 88 bd
       0.13095649 -0.012062525 0.15436411 -0.06680085
000140 f8 fd f5 bd 82 23 57 3d 4f 27 92 bd 84 c5 63 bd
       -0.12011331 0.052524097 -0.07136404 -0.055608287
000150 c3 9a 1e 3d c0 25 60 be 06 d6 85 3b 2a 12 b9 bd
       0.03872181 -0.218894 0.0040843515 -0.09036668
000160 c5 35 bf 3a 80 2a b3 3d ab bb 8e bc d5 e0 0a 3d
       0.0014588168 0.087483406 -0.017423471 0.033905823
000170 e7 de 33 bd 04 4d 82 3c 3b 32 81 bc 2f 87 97 bd
       -0.043913748 0.015905865 -0.015771022 -0.07398831
000180 46 19 25 bd bc 05 b4 bc d6 f9 9b bc 67 e2 da bd
       -0.040307306 -0.02197539 -0.01904003 -0.10687714
000190 d6 2e 30 bd 40 50 1a bd 4a 61 0f 3e a6 71 84 bd
       -0.043013416 -0.03767419 0.14001957 -0.06466989
0001a0 c3 30 f8 3c 4c ad ac 3c 8f e8 4b 3d 9f 23 52 bd
       0.030296689 0.021078728 0.049782332 -0.051303502
0001b0 67 7c 90 bd 7f 8c fc 3b 76 cc ce 3c a6 8d 66 3c
       -0.07054978 0.007707178 0.025243979 0.014071858
0001c0 78 55 85 3d 80 1a 1a 3d a2 c9 65 3d 22 be 56 bd
       0.065104425 0.03762293 0.056100495 -0.05242742
0001d0 ea f0 8d 3d d9 bf d1 bd 95 0f bd bd 34 54 24 bb
       0.06930716 -0.1024167 -0.09231488 -0.0025074603
0001e0 46 89 78 3d a4 63 19 bd eb 26 55 bc be 75 e0 bc
       0.06067779 -0.03744854 -0.013009767 -0.027399894
0001f0 39 27 a8 bd bd ca d7 3d 3f 3b eb 3c 92 1a 81 3d
       -0.08210606 0.10536716 0.028714774 0.06303896
000200 9e b1 5c bd aa 1e 1b bd 91 fe 82 bd 49 18 98 bc
       -0.053880326 -0.03787104 -0.06396211 -0.018566268
000210 31 af 06 3d a2 73 c3 3a 6c b2 9f bc 2f 38 96 bd
       0.03288192 0.0014911781 -0.019494258 -0.07334935
000220 5f 5b ab 3d e4 2f 1a bd 75 89 75 3c 4a 2f 18 3c
       0.08367037 -0.03764333 0.014986386 0.009288618
000230 ab b2 d7 bc e1 20 df 3a d6 23 aa 3c 7b 75 c3 bc
       -0.026330313 0.0017023348 0.020769041 -0.02385973
000240 f0 58 a8 3c 5d 08 e8 bd 91 7b 94 bd 56 c9 9d 3d
       0.020550221 -0.1132972 -0.07250131 0.077044174
000250 54 58 a6 3d 07 b6 25 bd 06 5c 1d be db a3 d2 bc
       0.08122316 -0.040456798 -0.15367135 -0.025712898
000260 31 33 3e bd 7f 0f 27 bd 13 01 0f bb 62 42 89 3c
       -0.04643554 -0.040786263 -0.0021820709 0.016755287
000270 66 8b 1c bd 90 0e 82 3c 45 43 82 bd ef 5e 0e 3c
       -0.03821888 0.015876085 -0.06360487 0.008689626
000280 44 4e f5 bb a8 86 52 3c 75 59 96 bc 7e 1e 2f bd
       -0.0074861366 0.012849487 -0.018353203 -0.04275369
000290 28 63 37 3d 65 da ea 3d 3a 68 73 3c 5d 4d 51 bd
       0.044772297 0.11467437 0.0148563925 -0.05109917
0002a0 a8 dc a3 3d f7 16 8e 3d 8a 55 d2 bc 50 fd fa bc
       0.08001071 0.06937974 -0.025675554 -0.030638367
0002b0 3d 4a 55 bb 54 6f 89 3d 34 27 33 bd 5e 54 da 3c
       -0.003254547 0.06710687 -0.04373856 0.026651558
0002c0 6a 83 3d 3c c2 0e 04 bc 6b 41 ff bb a1 b6 93 3c
       0.011566976 -0.008060159 -0.007789781 0.01803142
0002d0 36 f9 92 bd 13 34 54 bd 6b ab 3b bd a4 57 b2 bd
       -0.071764395 -0.051807474 -0.045817774 -0.087081224
0002e0 54 ae 19 be ca 8f 65 bc c6 e9 8a bd bf 4d b9 bc
       -0.15007907 -0.014011333 -0.0678287 -0.02262008
0002f0 d2 f1 ba 3d 91 9f b0 3d 01 e3 9b 3d 52 53 68 3d
       0.09128155 0.08624185 0.07611657 0.056720085
000300 e8 07 a9 bc 4e 9d 04 3e 17 17 99 3d 40 aa cb 3c
       -0.020633653 0.12950632 0.07475107 0.024861455
000310 d9 7b a3 3c 0d 1d a5 bc 4d ea 96 3d 3b fd 17 3d
       0.019956516 -0.020155454 0.07368908 0.037106734
000320 54 09 76 bc b9 fa 94 bd 55 84 c2 3d 05 30 98 3d
       -0.015016872 -0.07274384 0.094978966 0.07431034
000330 30 97 02 3d 52 a5 1e 3d ef 90 cb 3b 30 99 cd 3d
       0.031882465 0.03873188 0.006212346 0.10038984
000340 47 90 6d 3d 2e 41 0e 3d a9 c0 b5 bc b5 7e b0 bb
       0.05799892 0.03473013 -0.022186594 -0.0053861984
000350 f6 ae ca bd 99 8d bc bc 18 ce b3 bd d5 d2 70 bd
       -0.098966524 -0.023016738 -0.08779544 -0.058794815
000360 ff 1f 4f 3d fa c8 5b 3d ce 97 ab bd 17 f5 31 bd
       0.050567623 0.053658463 -0.08378564 -0.043446627
000370 61 5d 36 3d 51 04 2a bc 53 2b ea 3c d1 c9 13 bd
       0.044522647 -0.010377006 0.028585112 -0.03608114
000380 9c 4c fe bc 82 0b 7d 3d e4 70 88 bd 9f 15 00 bd
       -0.03104239 0.061778553 -0.06662157 -0.03127062
000390 14 85 5b bd 8d f0 87 bb db 23 e2 3d ac 31 8e bb
       -0.05359371 -0.004148549 0.11041995 -0.0043394174
0003a0 97 8f 0c 3d 4f 4d 6c 3c 9c 7c eb bb c8 32 c1 3d
       0.034316625 0.014422729 -0.0071864855 0.09433514
0003b0 e0 88 f5 3d 45 12 03 3d 2b a2 2a bd 3b 51 30 3e
       0.119889975 0.031999845 -0.04165856 0.17218487
0003c0 2f 03 b2 3c 93 9c 4b 3d 1d db 2b 3d 51 3f 8c 3d
       0.021730034 0.049709868 0.04195701 0.06848014
0003d0 76 0f 79 bd fd ac ca bd 16 b1 29 3d 16 86 06 3e
       -0.06080576 -0.09896276 0.041428648 0.13137087
0003e0 49 28 89 bc 71 d4 58 3c 89 79 14 bd fd 83 ac 3c
       -0.016742842 0.013234244 -0.036248717 0.02105903
0003f0 c2 57 81 bd 1f 90 39 bc 30 2e 68 bc 0b f1 49 bc
       -0.063155666 -0.011325865 -0.014171168 -0.0123255355

fc1.bias f4 [400]
000000 e4 44 da bd 51 fa 2a be 96 6a e8 3d df 59 d2 ba
       -0.10657671 -0.1669705 0.11348455 -0.0016048512
000010 3d e3 25 be 3d 42 f2 bd 54 fb 25 be b8 58 f5 bd
       -0.16199966 -0.1182904 -0.16209155 -0.119798124
000020 8f 18 e1 bd fa 6e 0c be b3 20 24 3d 94 ec 9a bd
       -0.10991012 -0.13714209 0.040070247 -0.07564655
000030 f9 bf 8d 3d 95 c2 78 bd f2 83 07 be c0 55 95 bd
       0.069213815 -0.060732443 -0.13233927 -0.07291746
000040 b6 f9 cf bd 0b 05 37 be ec 75 28 be 95 9b 37 bd
       -0.101550505 -0.17873017 -0.16451234 -0.04482611
000050 31 3b ec bd e4 13 9a bd 9d dc 62 bd b8 51 01 be
       -0.11534727 -0.07523325 -0.055386174 -0.1262883
000060 12 22 44 bd 11 77 0e be 4c f8 f9 bd 2c 7a 7f bc
       -0.047884054 -0.13912608 -0.12205562 -0.015593093
000070 17 3d 89 3c 46 fb 2e bd 58 2f 81 3c 97 e8 f4 3d
       0.016752763 -0.0427201 0.015769646 0.119584255
000080 e4 f0 aa 3d 82 39 9c bd e2 cd 06 bd 64 8c 62 bd
       0.083467275 -0.07628156 -0.03291119 -0.05530967
000090 42 40 d5 bd ae 90 84 3d 8c 50 0a 3e 14 e3 5c bc
       -0.10412647 0.06472908 0.13507289 -0.013481874
0000a0 e5 de 61 3d 85 23 0e bd 23 c0 7b 3c 82 bf 6c bd
       0.05514421 -0.034701843 0.015365633 -0.057799824
0000b0 80 fc ee 3c 6a ea 65 3d 3c ba 0d bd b2 a8 5f 3d
       0.029173136 0.056131758 -0.034601435 0.05460424
0000c0 99 41 f6 3b 20 ec cd bd 31 71 ac 3c 06 b3 ae 3c
       0.007515144 -0.10054803 0.021050068 0.0213256
0000d0 1a 48 a6 bc 9c 14 de 3d 73 50 00 be 16 90 28 3d
       -0.020298053 0.10843775 -0.12530689 0.041153036
0000e0 09 dc bf bd 32 99 c7 bd d9 62 49 bd fd 50 16 bd
       -0.0936814 -0.097460166 -0.049166534 -0.03669833
0000f0 8e d0 0c be d0 f1 c0 bc 7c 72 7e bd ab 23 d3 bd
       -0.13751432 -0.023552805 -0.0621209 -0.103095375
000100 48 2d 90 bd cb d1 97 bd 87 36 f1 bc 61 7a 11 be
       -0.07039887 -0.07413062 -0.029444946 -0.1420684
000110 39 ae 5b bd ee 91 42 bd 4f 51 1c bd b2 fd a8 bd
       -0.05363295 -0.04750245 -0.03816348 -0.082515135
000120 06 96 d3 3c fa cf 13 bd 91 4d 8a 3d fb cb 19 3b
       0.025828373 -0.036087014 0.06753076 0.002346753
000130 a7 b0 38 be ea 87 d0 bd 77 d0 3d bd 2a f7 a7 bd
       -0.18036138 -0.101821736 -0.046341386 -0.0820144
000140 bb 6f 9f bd d3 bb c6 39 ab eb 91 bc 80 0c 7a bd
       -0.07784983 0.00037905443 -0.01781257 -0.061047077
000150 b3 e2 01 bd b8 f7 da 3c 76 78 c4 bd d2 65 02 3d
       -0.031710338 0.02672945 -0.095932886 0.031835385
000160 27 f5 8a 3b 86 94 fc bd 66 1c 18 be 1d 8f b1 bd
       0.00424065 -0.12333016 -0.14854583 -0.08669875
000170 23 4e 5c 3d 02 e2 89 bd 89 6b fa bd 6d 45 cd bd
       0.053785454 -0.06732561 -0.12227542 -0.100230075
000180 d6 af 84 bd da f4 83 bc 8a 60 f6 bb 5e e5 21 3d
       -0.064788505 -0.016107965 -0.0075188326 0.039525382
000190 a5 fd 11 be 92 bd 89 3d d8 71 f8 bd 5b e2 2c 3d
       -0.14256914 0.06725611 -0.12131089 0.042208057
0001a0 2d 3d 65 bd ad 67 d4 3b d0 63 a7 3d 93 32 b6 bd
       -0.055966545 0.0064820857 0.081733346 -0.08896365
0001b0 27 04 38 bc 1e 99 ca bd 2c b4 93 bc 6c c3 c0 bd
       -0.011231459 -0.09892486 -0.018030249 -0.09412274
0001c0 06 65 1b bd 3a 70 20 be 26 ef 71 3b c4 d0 ea 3d
       -0.03793814 -0.15667811 0.0036916225 0.114656
0001d0 6d c4 8b bd 5b ff 68 bd a3 55 a2 bd 06 7f 3b be
       -0.068245746 -0.05688415 -0.0792649 -0.18310174
0001e0 98 53 b4 bd bc b1 23 be 74 3b 25 be a3 2e 87 bb
       -0.08805007 -0.15985769 -0.16135961 -0.0041254326
0001f0 79 3c 3c be 50 f0 38 3d 70 59 ee 3c fa 6a b8 bd
       -0.18382443 0.045151055 0.029095381 -0.09004779
000200 fc 29 5a bd 93 4b 84 3d cc 23 ef bd b9 37 1b 3d
       -0.053262696 0.06459727 -0.116767496 0.03789494
000210 a9 34 a3 3b 05 5c f3 3d 50 25 36 bd cd 72 c3 3c
       0.004980643 0.11882786 -0.044469178 0.023858452
000220 ea 51 38 bd 97 2b 14 bd 5a a6 2f 3d 32 20 30 bd
       -0.044999994 -0.036174383 0.042883255 -0.042999454
000230 f2 42 27 bd 71 c0 ef bd 68 34 b1 bd f6 41 7b bc
       -0.04083533 -0.11706627 -0.08652574 -0.0153355505
000240 0e 00 f5 bd 60 bc 2e bd 2e 8e 2f bd 34 bb 81 bd
       -0.11962901 -0.042660117 -0.042860202 -0.06334534
000250 75 84 51 be 09 0e d0 bd 6a f9 96 bc ce 55 16 3d
       -0.20460685 -0.10158927 -0.018429477 0.036702923
000260 28 96 f0 bb 26 af 08 be 84 3b 9e bd 29 05 3d be
       -0.007342119 -0.13348064 -0.077261955 -0.18459
000270 8d d0 5d bb 4b ae 26 be 15 6b b2 bd 73 3e b2 bd
       -0.003384623 -0.16277425 -0.087118305 -0.087033175
000280 17 7d 05 be 34 51 3c bd 3f fa f5 bc 88 29 8f bc
       -0.13035999 -0.04597588 -0.030026553 -0.017475858
000290 b6 4a 63 3d b5 1a bf bd 70 05 1d bd 63 f2 40 3d
       0.05549117 -0.09331266 -0.038335264 0.047106158
0002a0 49 fc 41 bd 45 63 8a bd 13 4c 15 bd 43 6d 23 be
       -0.04735974 -0.067572154 -0.036449503 -0.15959649
0002b0 e6 7f 8a bd 4a dc 9f bd 1a 6a 0b be 2b 48 92 3d
       -0.06762676 -0.07805689 -0.13614693 0.07142671
0002c0 2a 4d 01 be 47 95 b8 bd c3 0f f4 bc b4 f5 83 bd
       -0.12627092 -0.090128474 -0.029792672 -0.064433485
0002d0 33 39 1b bd d9 35 95 3c 7e f7 1c be 88 ab c8 bd
       -0.037896346 0.018214153 -0.15328786 -0.09798342
0002e0 28 ca 1c 3d 76 bc ec bd 20 36 6f bd fb 61 53 bc
       0.03827873 -0.115593836 -0.058401227 -0.012901778
0002f0 d5 1d ac 3d 15 e9 a0 bc 01 1b f9 3b b3 5b 22 be
       0.084041275 -0.019642392 0.007602096 -0.15855293
000300 42 12 41 be 7f 64 8f 3d 98 e1 dc bc ea cd 7a bd
       -0.18854621 0.0700159 -0.02696304 -0.06123153
000310 66 fd d4 bd 60 b2 d1 bd ac 30 36 3c 69 e9 9f bd
       -0.103998944 -0.102391005 0.011120003 -0.07808191
000320 03 1d f5 3c 05 25 13 be 85 9d 41 be 0f 17 ee bd
       0.02992106 -0.1436959 -0.18907745 -0.11625492
000330 ab ca 38 be aa c6 c9 bc 26 a7 55 39 04 aa e8 bc
       -0.18046062 -0.024630863 0.0002037553 -0.028401382
000340 fc a8 bc 3c 2a a9 79 ba 49 5d 9b bd b1 43 c7 3c
       0.023029797 -0.00095238036 -0.07586152 0.02432427
000350 76 54 e0 bd c0 93 3b be d0 8a fb 3b 7c 4a c0 bd
       -0.1095361 -0.18318081 0.00767646 -0.09389207
000360 8b 6b fd bd 2c bc 8d bd b6 69 04 3d 39 f8 53 3d
       -0.12374028 -0.069206566 0.032327376 0.051750395
000370 ba a1 40 be 82 67 85 bd 62 a7 0b be cf 95 8d bd
       -0.18811694 -0.06513883 -0.1363807 -0.06913339
000380 63 76 82 3d 93 e6 91 bd c5 d2 80 bc 8d bf 57 3c
       0.06370237 -0.07124057 -0.015725503 0.013168228
000390 70 fb ff 3d 33 4d b2 bd d2 72 1b bd 3f cc d8 3c
       0.1249913 -0.08706131 -0.037951298 0.02646458
0003a0 ff 41 93 3d 19 c0 3b be 5a 19 01 be 09 dc 8f 3b
       0.07190322 -0.18334998 -0.12607327 0.004390244
0003b0 c6 0d b5 bd 49 06 19 be e3 52 19 be fd 54 c3 bd
       -0.08840518 -0.14943804 -0.14973025 -0.095376946
0003c0 78 0d 98 bc 6b 3e 8b bd 45 51 b1 bc 6c 54 a8 ba
       -0.01856111 -0.06799015 -0.021645198 -0.0012842542
0003d0 89 d5 12 be fd 1f 88 3c 19 15 0f 3c dd c1 69 3e
       -0.1433927 0.016616816 0.008733057 0.22827859
0003e0 44 18 fb bd 85 1d 12 be 3b 6b 5f 3d 58 82 a5 bc
       -0.12260488 -0.14269073 0.054545622 -0.020203754
0003f0 f2 e3 36 bd 2a 1e 1d be 64 52 aa 3d e5 86 15 bd
       -0.04465098 -0.15343538 0.08316496 -0.0365056

fc2.weight f4 [300, 400]
000000 6a 82 41 3e 02 77 e7 3c 04 5e c0 bd f3 e2 e8 bd
       0.18897405 0.02825499 -0.09392932 -0.11371412
000010 5a db 69 bd ae 88 e9 bd 4d a3 7f 3d 78 c3 58 bd
       -0.057093956 -0.11403023 0.062411595 -0.05292079
000020 91 54 2a 3d 1c 92 0f bd 66 7b f3 bd 80 ae d9 bc
       0.041584555 -0.03505145 -0.11888771 -0.026572466
000030 ff 6f 39 3c 8c c1 36 3e 4f 76 1c 3e b2 c0 7b bb
       0.011318206 0.1784727 0.15279506 -0.0038414416
000040 6a bf 04 3e 6e 41 45 be e7 27 df 3d 70 95 88 bc
       0.12963644 -0.1926324 0.10896283 -0.01667282
000050 ad 90 ff 3b ff 78 1b 3e 27 97 94 3c d2 0b f6 bd
       0.007799229 0.15182875 0.018138481 -0.12013973
000060 cb 76 ab bb 60 c7 47 3e 8d fe b0 3d 99 68 51 bd
       -0.005232667 0.1950965 0.08642302 -0.051125143
000070 37 18 fc bd 6d 12 32 3d 15 d6 8e bd 30 0f e7 3d
       -0.12309306 0.043474603 -0.06974427 0.11282194
000080 e3 e4 84 bd a4 2a af bd 37 2f 15 3d 05 fe 06 3d
       -0.06488969 -0.08553055 0.03642198 0.032957096
000090 89 f3 04 be 89 fa 1b bd ff 77 93 bd 87 6c 69 3c
       -0.12983526 -0.038080726 -0.07200622 0.014247066
0000a0 87 8c cb 3d 45 94 57 3e 45 8b c8 bd 4b 13 b3 3b
       0.09938913 0.21052654 -0.097921886 0.0054649464
0000b0 5c 03 fc 3c b2 58 d1 3d 93 ce e0 3d 33 25 98 bd
       0.03076332 0.102219954 0.10976901 -0.0742897
0000c0 2c e3 96 bd f6 3f 0d 3b c1 01 b9 3c 40 52 81 3d
       -0.07367548 0.0021553016 0.022583844 0.06314516
0000d0 9b de 27 bc 46 71 8c 3b e6 0e a8 3d f8 9b d3 3c
       -0.010245944 0.004285964 0.08205967 0.025831208
0000e0 5f 47 87 bc 2a a2 3b be 1b 01 0e 3d f2 7c 2a bd
       -0.016513525 -0.1832358 0.034669023 -0.041623063
0000f0 57 20 4a bd ba 00 8d bd 30 8b 37 bc 44 0a 7e 3d
       -0.049347248 -0.06884904 -0.0112026185 0.06202151
000100 32 32 89 3d 7f 2a af 3d 38 e6 97 3d be 31 78 3e
       0.06699027 0.08553027 0.074169576 0.24237725
000110 b5 9b 0c be b6 31 a7 3d da 41 15 be 09 34 05 3e
       -0.13731273 0.081637785 -0.14575902 0.13008131
000120 a7 92 f6 bd 9c b1 24 be ea 95 61 3c 16 2e 04 bd
       -0.120396905 -0.16083378 0.013768652 -0.032270513
000130 62 6c 0e 3d aa a4 7f 3d 78 3a 53 bc 96 f8 9e 3d
       0.03477133 0.062412895 -0.012892358 0.07762258
000140 92 4d c4 3d 93 06 fc bc 55 f1 d4 bc ef bb c3 3c
       0.09585108 -0.030764854 -0.025993982 0.023893325
000150 99 4b 44 3e 06 7d 78 3d 4a f6 e5 bd 3b e8 9a 3d
       0.19169463 0.060666107 -0.112286165 0.07563826
000160 e3 34 19 3d ae 61 51 be 14 9c 40 be 2b 95 03 bd
       0.037403952 -0.20447418 -0.18809539 -0.03212468
000170 1f a4 4f be aa 2a 96 bc 05 1e 92 bd bb ed d6 3c
       -0.20277451 -0.01833089 -0.07134632 0.026236406
000180 d3 3b db bc c2 82 99 bd 34 13 bd 3a fe 42 0d 3d
       -0.026761925 -0.07495643 0.0014425279 0.034487717
000190 50 98 c1 3d e5 e0 20 3b e8 b5 ec 3b 3f c2 2d b9
       0.094528794 0.002454811 0.0072238334 -0.00016570928
0001a0 b0 28 9b 3d 52 bd 18 bc cc c6 7d 3b f3 cb f6 3d
       0.0757612 -0.009322481 0.0038723228 0.12050619
0001b0 ce 90 42 bd b5 90 70 bd 76 d3 fd bd 81 14 ea bd
       -0.047501378 -0.058731753 -0.123938486 -0.11429692
0001c0 6d 55 53 be 25 fa 89 3d 45 f1 8f 3c ca ce 50 bd
       -0.20638056 0.067371644 0.017571101 -0.05097846
0001d0 e6 de 56 bd 8e ca 14 be 4e d5 1d 3b dd bd 15 3e
       -0.052458666 -0.14530393 0.0024083438 0.14623208
0001e0 7f 5a fe 3c c1 19 23 be 9b c0 32 3c 84 49 4d 3e
       0.031049011 -0.15927793 0.010910179 0.20047575
0001f0 d1 9f 58 bc 0c 72 43 bd fa b8 9a bc 39 8a 36 3d
       -0.013221697 -0.047716185 -0.018887032 0.044565413
000200 49 b7 f6 3d 46 06 82 bd 0f 57 f1 bc f1 5e c3 3c
       0.120466776 -0.06348853 -0.029460458 0.023848983
000210 08 de 30 3e f9 bc 86 3d 1c 3a d1 3d 99 ba e7 bb
       0.17272198 0.065790124 0.102161616 -0.0070718047
000220 7c 8f 76 be 3d 6d 8d bd 0f 85 28 be 31 7b 99 bd
       -0.24078172 -0.06905601 -0.16457008 -0.074942
000230 7d 33 57 3c 5a 78 65 3d c5 65 50 3e 27 34 aa 3d
       0.013134834 0.05602298 0.20351322 0.083107285
000240 e6 1a 5e 3e 0d bd e7 3d e0 b4 e4 3d 6f af 50 bc
       0.21689948 0.113153554 0.11167312 -0.012737139
000250 38 03 0a bd 81 99 e8 bc f6 85 1a be 28 0c ab 3d
       -0.033694476 -0.028393509 -0.15090165 0.08351928
000260 e6 4e 61 bd ad 7a 98 bd 0f 2b 8b be 69 d5 35 3c
       -0.055006884 -0.074452735 -0.2718129 0.011098244
000270 fa 2a 89 3d bf 70 9c 3d 02 cf 81 bd 91 ec 0e 3d
       0.0669765 0.07638692 -0.06338312 0.034893576
000280 ee 41 a1 3d b3 64 ad bd d0 d9 df 3d d4 4f 27 3d
       0.07873903 -0.084664725 0.10930216 0.040847614
000290 9f 2a 61 3d 18 6b 07 bd 45 75 dd bd 7b 89 59 3c
       0.054972287 -0.033061117 -0.10813383 0.013277407
0002a0 59 79 df 3c 78 38 84 3d 12 5e d1 3d a3 ba ee 3a
       0.027279543 0.06456083 0.102230206 0.0018213581
0002b0 1f 79 93 3d 41 67 ff 3c 67 0e e6 bd ee 8d f9 3d
       0.072008364 0.031177165 -0.11233216 0.12185274
0002c0 f7 86 8c bc 27 5a 68 bd 49 3b a5 3c 3a 61 dd bd
       -0.0171542 -0.0567266 0.02016987 -0.1080956
0002d0 a8 e2 8e 3e 88 ac c8 bd f3 09 14 3e 91 9e 4c bd
       0.279073 -0.09798533 0.1445692 -0.04995591
0002e0 1d 1d 90 bb 99 00 60 3d 93 5a 8c 3d e3 5a 07 3e
       -0.004398002 0.05468807 0.06853213 0.13218264
0002f0 b3 43 97 3d fe 4a bc bb 38 bf e8 bd 90 88 0f be
       0.073859595 -0.0057462445 -0.11364597 -0.14016938
000300 8b c8 f5 bb b3 d5 8e bd 73 d1 d1 3d 6b 0d 97 3e
       -0.007500713 -0.06974354 0.102450274 0.29502425
000310 05 d2 1e bd 58 0c fa 3d e0 5c f1 3d d7 4a 4e 3e
       -0.03877451 0.12209386 0.117852926 0.20145737
000320 04 03 a3 bd 12 c8 16 3e cd 73 d2 3d 6e f1 fa bd
       -0.079595596 0.14724758 0.102759935 -0.1225308
000330 0b 35 94 3d 6c d0 05 3e 3a e8 af bd d0 f5 94 3c
       0.0723668 0.13067788 -0.085892156 0.018183619
000340 b4 8c 26 be 48 e0 09 bd d4 82 17 be f7 cf cb bd
       -0.16264611 -0.033661157 -0.14796 -0.099517755
000350 59 e0 c2 bd 18 94 e8 3d 02 20 d5 bd 07 95 09 3e
       -0.09515447 0.11356372 -0.10406496 0.13435756
000360 16 cf 63 bd 58 e6 c5 bd a0 d1 78 bb c9 09 e2 bd
       -0.055617414 -0.09663075 -0.0037966743 -0.110370226
000370 5c d1 fb 3c 66 0b d8 3b dd 82 a5 bc bb 2e f6 bc
       0.030739479 0.0065931557 -0.020204002 -0.03005158
000380 5e aa 9d ba 66 34 06 3d 7c 2a 38 bb f5 be 16 be
       -0.0012028923 0.032764815 -0.0028101495 -0.14721282
000390 7a 0b 1c bd 7b 26 e4 3c 24 8b a7 3d f3 25 84 3b
       -0.038096882 0.02785038 0.08180836 0.004032844
0003a0 18 19 b6 bd 21 3a 88 3c 33 f0 35 3d 42 55 82 3d
       -0.08891505 0.01662928 0.044418525 0.06363918
0003b0 e6 60 07 3e b2 86 49 3e 01 0f 81 3d 25 1b 97 3d
       0.13220558 0.19680288 0.0630169 0.07378224
0003c0 65 96 0a 3e 60 49 7d 3e 33 cf 62 3b e1 c1 31 bd
       0.13533933 0.24735022 0.0034608364 -0.043397788
0003d0 50 df a0 3d eb c0 52 bd fd 8a 69 3d 13 27 09 be
       0.078550935 -0.051453512 0.057017315 -0.13393812
0003e0 55 fd 98 bd c0 ea 51 be 31 48 2d 3d 5e a3 89 bc
       -0.07470194 -0.20499706 0.042305175 -0.016801532
0003f0 d9 e9 fe bd 8a b3 15 3e eb 42 22 3d 1e b4 e6 bb
       -0.12446947 0.1461927 0.0396146 -0.0070405146

fc2.bias f4 [300]
000000 6e f5 ae 3c 0d 99 89 bd 57 ae 68 bd 69 f8 f9 bc
       0.021357264 -0.06718645 -0.05680689 -0.030513959
000010 b3 da 77 bd 9d 39 92 bc 8f 64 e6 bd 1d b0 36 3d
       -0.060511302 -0.017849738 -0.11249649 0.04460155
000020 37 c4 e4 3d 6d de 02 bd ef 8d 08 be 62 03 df bc
       0.111702375 -0.031950403 -0.13335393 -0.027223293
000030 f7 ae 51 bc 30 65 47 3a f8 ea 19 ba fa 71 37 bd
       -0.0127980625 0.00076063257 -0.00058715 -0.04478643
000040 b9 49 71 3d 53 e3 ce 3c f8 a2 e9 3d e8 94 5d 3d
       0.058908198 0.025254881 0.11408037 0.054097086
000050 82 de ec bc f7 67 78 bd c8 98 3d 3b 60 a2 85 bc
       -0.028914694 -0.060646024 0.0028930176 -0.016312778
000060 14 ba 92 bd d9 66 f8 bd 74 67 82 3d 7f b0 17 be
       -0.07164398 -0.12128992 0.06367388 -0.14813422
000070 93 cc 29 bd 48 50 21 bc 83 95 81 bd 56 58 41 bd
       -0.041454863 -0.009845801 -0.06327345 -0.047203384
000080 ca aa b5 3c 2c 60 01 bd 75 4c 69 bd cf 52 05 be
       0.022176165 -0.031585857 -0.05695768 -0.1301987
000090 39 d6 0d be 75 77 81 bd 2b ee 4d bd 8d 44 9e 3c
       -0.1385125 -0.06321613 -0.050275963 0.019319797
0000a0 a1 f2 ca bd ef 9b 3e 3d 5c 75 c9 bd 34 20 f7 bd
       -0.09909559 0.04653543 -0.09836838 -0.12066689
0000b0 4e de 24 3d 06 cb 13 3d a5 80 cc bd 7d 6a af bd
       0.04025107 0.03608229 -0.099854745 -0.08565233
0000c0 10 c1 a8 bb 59 a0 19 bd c2 a4 9a bd 59 5b d0 bc
       -0.005149968 -0.037506435 -0.07550956 -0.025434183
0000d0 f7 5b a8 3c da f3 aa 3d 60 ed 28 bd de 76 1c be
       0.020551665 0.08347292 -0.041242003 -0.15279719
0000e0 37 40 45 3d 3b 98 83 bd df c6 fd bb e1 ff 70 bd
       0.048156943 -0.0642552 -0.0077446545 -0.058837775
0000f0 d4 9f 9c bb f6 d7 c5 bb ac 2d 08 bd a9 45 0f be
       -0.004779795 -0.0060377074 -0.03324668 -0.13991417
000100 98 05 2f 3d 7a d8 7a 3c 89 d3 bd bb 62 48 92 3c
       0.042729944 0.015310401 -0.005793039 0.01785678
000110 11 df 4e bd 05 ff 41 3b 65 85 c8 3c 22 b9 49 3c
       -0.0505057 0.0029601466 0.02447767 0.0123122055
000120 9c 48 ea bb c4 c7 b4 bd f8 ce 7f bc ec c1 fb bd
       -0.007149769 -0.08827165 -0.01561331 -0.12292847
000130 81 7c 46 be ec c7 21 3b 39 b5 ce bc af db 7b bc
       -0.19383432 0.0024685813 -0.025232898 -0.015372201
000140 e5 7c e6 3c 39 63 7e bc cf 2c de bd 4e d8 80 bd
       0.028135726 -0.015526586 -0.1084839 -0.06291257
000150 71 9a b8 3c f4 71 e2 bd 79 ca 8d bd 75 97 3f bc
       0.02253458 -0.11056891 -0.06923384 -0.011693825
000160 6f 13 f0 bd 1e 6f af bc 43 44 29 be ed a7 23 bd
       -0.11722457 -0.02141529 -0.16529946 -0.03995507
000170 5e 9b 8b 3c dd 3d b6 bd 10 86 b6 bd a6 51 d7 3b
       0.017041858 -0.08898518 -0.08912289 0.0065710125
000180 bc bc 48 bd 04 87 64 3a 99 95 54 3d 1a cd 1a bd
       -0.049008116 0.00087176287 0.05190048 -0.037793256
000190 16 f1 a4 bc 86 29 02 3d b1 8d 65 3c 3d 93 86 3d
       -0.02013449 0.03177788 0.014010833 0.06571052
0001a0 06 24 63 bd 94 0f ff bb 84 b9 0d 3d 66 df 24 3d
       -0.055454277 -0.0077838395 0.03460075 0.04025211
0001b0 c3 98 b1 bd f9 50 a4 bd 9e 1b 9a bd 3a 05 f3 bb
       -0.08671715 -0.08023257 -0.07524799 -0.0074163945
0001c0 87 a3 96 bc 32 46 85 bc 9a 9c 19 bd 42 84 87 bc
       -0.018388523 -0.016268823 -0.037502863 -0.016542558
0001d0 76 ea 6b bd 5f 94 e8 3b f2 42 f2 bc c7 4e 83 bd
       -0.057596646 0.0070977653 -0.029572938 -0.0641151
0001e0 77 d3 72 3a a1 db 9b bd 0b 06 19 be 42 c7 2a bc
       0.0009263078 -0.0761025 -0.14943711 -0.010423483
0001f0 82 8e 44 3d 73 e2 7a bd 41 39 67 be b3 b1 7f bd
       0.04798747 -0.061251115 -0.22580434 -0.062425327
000200 31 82 84 3b f3 b3 cf bb 6d a5 65 bc 96 e9 2f 3c
       0.0040438403 -0.0063385903 -0.014016491 0.010736844
000210 9e d7 9f bc c7 5f 09 bd a9 26 ae 3c 65 68 ac bd
       -0.019511994 -0.033538606 0.021258669 -0.08418349
000220 c4 fd a3 bd a8 a6 f9 3d ca c5 06 bd b8 43 71 bd
       -0.08007386 0.1218999 -0.03290347 -0.058902472
000230 d8 d0 4b 3c 22 fb 86 3d 21 4b e8 bd 2f 66 77 bd
       0.012439929 0.065908685 -0.11342455 -0.060400184
000240 21 37 89 bd 95 8a d1 bb 46 51 85 ba e5 9f 08 bd
       -0.06699968 -0.006394694 -0.0010171316 -0.033355612
000250 fc fe 6e 3c 66 ac c1 bd 17 ba 28 bd 3d e2 bd 3d
       0.01458716 -0.094567105 -0.041193094 0.09271667
000260 dd 4f 0c 3d f3 65 e9 3d 83 6d 6e 3d df e1 09 be
       0.03425585 0.113963984 0.058209907 -0.13465069
000270 a4 0a 17 3c 60 9d 37 bc c6 da 06 be bb 01 4c 3d
       0.0092188455 -0.011206955 -0.13169393 0.049806338
000280 6e 24 ea bd d7 33 94 bc f2 95 27 bc 16 62 bd 3c
       -0.1143273 -0.018091125 -0.010228621 0.02311806
000290 58 ee 8f bd 98 5f 49 3d d2 1c 0f 3d 33 24 9f bd
       -0.07027882 0.04916343 0.034939595 -0.07770576
0002a0 2e 71 66 3b c1 e0 bf bd 38 ef 4f 3d d4 eb b8 bd
       0.0035162675 -0.0936904 0.050765246 -0.09029356
0002b0 e6 a4 92 bd 0d ed db bd 44 30 ee bd 2e b3 05 be
       -0.07160358 -0.10738573 -0.116303 -0.13056633
0002c0 50 ae 6d bc 48 15 db 3c 05 4b e0 bd 2f bf 69 bb
       -0.014506891 0.026743546 -0.10951809 -0.0035666933
0002d0 25 3c 03 bd cc 0c 04 bd 66 39 37 bd 2d 9d f3 bd
       -0.03203978 -0.032238767 -0.044732474 -0.11895213
0002e0 23 19 35 bb d7 a6 0a be 2c 03 40 3d 96 09 76 bc
       -0.002763339 -0.13540207 0.046878025 -0.015016934
0002f0 d8 80 69 3d 13 66 a6 bd fe ff 25 be a7 65 7c bd
       0.05700764 -0.08124938 -0.16210935 -0.06162038
000300 28 8a cf bd 0f 7d f5 bc 5d 59 d9 3d c8 82 6b bc
       -0.10133773 -0.02996686 0.10612748 -0.014374442
000310 6d b5 33 be 54 c6 86 bc d0 8f c4 3c dd b1 51 bd
       -0.17549677 -0.016451992 0.023994356 -0.051195014
000320 04 74 27 bd e0 9c ca bd 45 76 b9 bd 70 bb b4 3b
       -0.040882125 -0.09893203 -0.09055761 0.0055155084
000330 5c 2e 68 3a 83 7e da bc e9 a5 14 bd ac 7a cc bd
       0.0008857006 -0.026671654 -0.036291037 -0.09984335
000340 f4 8c 8f bd b9 2f 94 bd aa 9d f8 bc 5f 56 78 bd
       -0.070093066 -0.07235665 -0.030348618 -0.060629245
000350 4c 70 b0 bd 81 bc 63 3d 4a ec d3 bb c7 88 dc 3c
       -0.08615169 0.055599693 -0.006467377 0.02692069
000360 f3 10 da bd 43 0d 98 bd 50 07 0e 3d 83 7d b4 3b
       -0.10647764 -0.074244045 0.034674942 0.005508126
000370 ed 25 81 bd 79 55 8c bc f0 39 d1 b9 ec 8b 8a bd
       -0.06306062 -0.0171306 -0.00039906753 -0.06764969
000380 5e 30 68 bb d9 4c 45 bd 3f 4f 45 bc 12 c8 4e 3d
       -0.003542922 -0.04816899 -0.0120428195 0.05048377
000390 2c c9 a6 bb 0d 69 50 bd e4 ef b3 bc b8 41 47 3d
       -0.0050898995 -0.050881434 -0.021964975 0.04864666
0003a0 4b cd 5f bd 4c 12 f4 bc 38 cc 99 bd 2d a6 09 bc
       -0.054639142 -0.02979388 -0.07509655 -0.008401436
0003b0 d3 9a df bd 59 11 52 bd 82 46 f5 3b f3 89 f6 bd
       -0.10918202 -0.051286075 0.007485212 -0.120380305
0003c0 66 ed 64 bc 23 3a 1f 3d e3 60 be 3a d9 ae 1a be
       -0.013972616 0.038873803 0.0014524724 -0.15105762
0003d0 c2 f8 07 3d 62 11 8d bd 07 50 0d bd 5c c9 21 3d
       0.03319622 -0.06888081 -0.03450015 0.039498672
0003e0 0a 32 df 3c e1 86 3b bc 54 8a 7e bd 17 d6 22 bd
       0.02724554 -0.011445732 -0.06214364 -0.039754953
0003f0 84 47 b2 bd 48 0d 87 3d 93 b4 c7 bd 77 cc 50 bd
       -0.08705047 0.0659433 -0.09751239 -0.050976243

fc3.weight f4 [4, 300]
000000 f0 9b bd 3d 79 7b 48 3e 59 44 d6 3e 8e 8a 01 3e
       0.09258258 0.19578351 0.4184902 0.1265051
000010 2a d9 89 3e ae 49 71 be 58 b6 94 be b4 6c e2 bb
       0.26923496 -0.23563263 -0.29045367 -0.006909931
000020 95 1c 8a 3b 39 b6 65 3e 55 40 4a be 0d aa 1a bd
       0.004214833 0.22432794 -0.19751103 -0.03775983
000030 0e 4c f3 3c fe 54 6c 3d 46 de 3e 3e c4 f3 71 3d
       0.029699352 0.057698242 0.18639478 0.059070364
000040 37 7d 0e be 05 f9 0d 3d c9 62 98 3d 31 48 19 3e
       -0.13914953 0.03466131 0.07440717 0.14968945
000050 56 aa f5 bc e8 80 6e be c6 63 b3 3e ca dd 8a bc
       -0.029988449 -0.23291361 0.3503706 -0.01695146
000060 46 a6 36 be 8a f4 19 bd e3 e9 16 be f0 f2 6f 3e
       -0.17836866 -0.037586726 -0.14737658 0.23432517
000070 59 c9 ab 3e db 20 69 3e f7 91 43 be a2 4d cf 3e
       0.33552054 0.2276644 -0.1909865 0.40488917
000080 b8 18 83 bd 19 13 a8 3d a3 36 2b 3d 36 f4 40 bc
       -0.06401199 0.082067676 0.041800153 -0.011776974
000090 55 d9 86 bd 53 c3 c4 3c 40 56 ad be 91 74 92 3c
       -0.065844215 0.02401892 -0.33854866 0.017877849
0000a0 b1 69 78 3e ae a4 48 be da e3 b7 3e f1 5f 93 3e
       0.24259068 -0.1959407 0.35916024 0.28784135
0000b0 8b 0e 97 3c e5 03 5b bd 7f 96 26 3e ec 02 a9 3d
       0.018439552 -0.05347051 0.16268347 0.082525104
0000c0 08 26 53 be a8 59 7c 3e 6c 1d 48 3e 29 0a 70 bc
       -0.20619977 0.24643576 0.19542474 -0.01465086
0000d0 03 06 97 bd e4 bb 7c be 7e 82 cc be b3 f5 a5 3d
       -0.073741935 -0.2468105 -0.39943308 0.08103504
0000e0 f9 4a 95 3e af 17 5e 3d 22 5c 27 be 40 b7 3c be
       0.29158762 0.054221805 -0.1634374 -0.1842928
0000f0 f6 f8 32 3e f1 b5 4e bd cc c0 90 3a 97 8e 51 3e
       0.17477784 -0.05046648 0.0011043786 0.2046455
000100 8f c9 47 bb ca 5e 11 be a9 ad e3 bd 7a b1 91 be
       -0.0030485129 -0.14196315 -0.111171074 -0.28455716
000110 05 dc de be 73 94 a5 bc 25 d8 c0 bd 1c 6d b5 ba
       -0.43527237 -0.020212388 -0.09416226 -0.0013841721
000120 09 6d e6 bd 06 2a 40 3d 05 2b 86 bd 05 4f ca 3c
       -0.112512656 0.046915077 -0.06551174 0.024695883
000130 b4 4c 06 be cc 01 90 be 22 df 7e be 46 0d 5c be
       -0.13115197 -0.2812637 -0.24889806 -0.21489438
000140 3c 5b dc 3d 1f 3a 5d 3d 76 8b ee 3d ff 0a 10 be
       0.10759589 0.054010507 0.11647694 -0.14066695
000150 28 a0 3c be 15 27 e9 3d a3 04 54 3d 7c c0 1f bb
       -0.1842047 0.113844074 0.051762234 -0.0024376204
000160 77 27 a9 be ba ba 0b be a9 a5 cf 3e b9 25 a1 3e
       -0.33037922 -0.1364545 0.40556076 0.31474093
000170 60 aa 60 be 38 34 e2 bd 7c 44 2e 3d 8b 96 1f be
       -0.21939993 -0.11045116 0.04254578 -0.15584771
000180 b0 72 e8 3d 94 04 cd be 6a 57 26 3e bf 0b 32 be
       0.1135 -0.40042555 0.16244283 -0.17387293
000190 c2 9f 97 3d 4e 10 37 3e 71 e8 cb bd f0 d7 1c bb
       0.07403518 0.17877313 -0.09956444 -0.002393242
0001a0 aa 71 12 be aa 8b 03 bd e0 6c 6b 3e fd b5 c5 bd
       -0.14301172 -0.032115616 0.22990751 -0.09653852
0001b0 63 a3 2b be 28 a9 e9 3d e3 49 39 3c 67 0c a7 be
       -0.16761546 0.11409217 0.01130912 -0.3262665
0001c0 17 e6 37 3e ca 05 2e bd 83 35 4d bd 1f fc 15 3e
       0.17958866 -0.04248599 -0.05009986 0.14646958
0001d0 ac 5c 43 be 52 95 0c 3e 36 85 0d bd 9b 27 c1 be
       -0.1907832 0.13728836 -0.034550868 -0.3772553
0001e0 b6 35 55 3e 0a b4 a0 3e 88 d9 b5 3e b1 b3 0c 3e
       0.2082127 0.3138736 0.35517526 0.13740422
0001f0 cf 32 09 bd 06 a9 dd 3d 8f 5c b8 3b 1f 72 c4 3e
       -0.03349572 0.10823254 0.005626268 0.38368317
000200 86 8e fd be 87 76 f4 bc 13 0c ee 3b a7 6b 18 be
       -0.495228 -0.029841674 0.007264623 -0.14884816
000210 97 3a b8 3e 2f 5a 31 be 52 c3 53 3e e3 46 5e bd
       0.359822 -0.17319559 0.20679978 -0.05426682
000220 fa a0 c7 bc fc ad bf be f7 88 cf bb 1f fc 1e bd
       -0.024368752 -0.37437427 -0.006333466 -0.03881466
000230 54 95 1a 3e bc 02 bb 3d fd 9a ba bc 08 1f 5b be
       0.15096027 0.09131381 -0.022778982 -0.21398556
000240 56 fc 0c 3d d7 18 99 3d 7d d4 05 3e 74 99 17 3d
       0.034420334 0.07475441 0.13069339 0.03701158
000250 21 30 f8 be 2b b6 d6 bd 7f 1e 5b 3e 68 36 05 3e
       -0.4847422 -0.104839645 0.21398352 0.13009036
000260 ea 00 01 3f 1a 69 d7 3d b7 0b f5 bd 14 55 6f 3e
       0.5039202 0.105180934 -0.11965125 0.23372298
000270 bb 50 94 3d 94 ed dc 3d 3a df b5 3e 65 2e 0c 3e
       0.072419606 0.10787502 0.3552187 0.13689573
000280 67 18 95 3e f0 76 f4 3e 4a a1 1b be 01 36 a9 3e
       0.2912018 0.47746992 -0.15198246 0.33049014
000290 fd dc c4 3d a5 d2 f6 3d 6b 53 53 be d2 e7 a0 bd
       0.09612463 0.12051896 -0.2063729 -0.07856716
0002a0 e0 63 c8 bb b6 05 03 be 25 5c 72 3e f7 89 26 3e
       -0.0061154217 -0.12795147 0.23667963 0.16263567
0002b0 aa c4 53 3c d6 12 ca be b1 de 7c 3e 5d b0 2a bd
       0.012925306 -0.39467496 0.24694325 -0.0416721
0002c0 ee 23 08 be 07 22 9d 3d 19 d2 e3 3d 3c b8 1a bd
       -0.13294956 0.07672506 0.11124057 -0.037773356
0002d0 8e 12 1c 3e b2 4c c5 bd 2f ae 6a 3d 42 19 d8 3d
       0.15241453 -0.09633769 0.05729502 0.105516925
0002e0 ac e9 59 be 96 75 e5 bb e3 29 9e 3d b2 49 8a 3e
       -0.21280545 -0.0070025427 0.07722833 0.2700935
0002f0 b6 c9 cf 3c 85 29 74 3e cc de 07 be 4f d7 15 be
       0.025364738 0.23843963 -0.13268584 -0.14632915
000300 1d 94 93 bd 52 26 4d be dc 53 57 3d ae b8 9c 3b
       -0.07205985 -0.2003415 0.05257021 0.0047827577
000310 73 b7 a7 3c 38 64 73 be 0f 38 da bd e9 ec 9c bd
       0.020473218 -0.23768699 -0.106552236 -0.076623745
000320 9d 42 e9 3e 46 e8 e2 be 8c 6c 98 bc ae 6b 42 be
       0.45558634 -0.44317836 -0.018606447 -0.18986389
000330 f0 0d 15 be 4e 17 80 be a9 f0 0b 3e cd d8 87 bd
       -0.14556098 -0.2501778 0.13666023 -0.06633148
000340 69 a4 e8 3e 69 c0 0b be a2 91 73 be 8f f7 44 3e
       0.45437935 -0.13647617 -0.23786023 0.19235061
000350 2e bb 8e bd df 23 f5 3c c0 de ee bd 02 76 8c bd
       -0.069692954 0.029924331 -0.1166358 -0.06858446
000360 4b 70 26 3d 83 db 0a bb 03 a8 67 be a2 7f 2e be
       0.040634435 -0.0021187968 -0.22622685 -0.17040876
000370 ac 38 c0 3d b6 1b 2e bd f8 b7 4b bc 03 b2 12 be
       0.09385809 -0.042506896 -0.012433998 -0.14325719
000380 09 fd 08 3e 2e d6 c0 be e4 9e d1 be d1 e0 3f 3e
       0.13377775 -0.37663406 -0.40941536 0.18738104
000390 f8 62 1a be 92 e1 d1 be ee 58 0c be 52 41 e0 3c
       -0.15076816 -0.4099241 -0.13705799 0.027374897
0003a0 c1 1a ef bc 21 b0 8c be ac 95 2b 3d 3f 42 cc bc
       -0.029187562 -0.27478126 0.041890785 -0.024933932
0003b0 80 0b 4c bd 94 f3 90 bd 4b e4 72 3e 85 17 42 be
       -0.049815655 -0.07077709 0.237199 -0.18954284
0003c0 ee 04 64 be 5d a1 80 bd 44 85 09 3e ec 40 32 be
       -0.22267506 -0.062807776 0.13429743 -0.17407578
0003d0 37 ac 44 bb 84 96 70 be f2 01 c6 3a be 86 b1 bd
       -0.0030009875 -0.23494917 0.0015106781 -0.08668278
0003e0 11 89 b9 bc b7 cf 67 3a 02 01 7b 3e f8 ec 2c 3e
       -0.022648366 0.00088429026 0.24512103 0.16887271
0003f0 85 0d 5b 3e 8f aa 75 be 84 55 12 3d d3 af 6b 3d
       0.21391876 -0.23990844 0.035726085 0.057540726

fc3.bias f4 [4]
000000 86 af 32 bc 72 6a d5 3d 30 52 66 3d fd d1 07 3d
       -0.010906106 0.104206935 0.056230724 0.033159245

bn1.weight f4 [33]
000000 e3 a7 7b 3e 3a b6 10 3f 7b 28 b4 3e bb f5 1c 3f
       0.24575762 0.56528056 0.35187134 0.61312455
000010 de 0d d8 3e d7 a1 03 3f c8 ec 8f 3e 69 ee 47 3e
       0.4219808 0.51418823 0.28110337 0.1952454
000020 a5 6c bc 3d e8 dd 68 3e ab 7f da 3d f2 70 88 3e
       0.0920041 0.227409 0.10668882 0.2664867
000030 af 74 6f 3e bd 56 01 3f 70 36 c5 3e 2d 5e ff 3e
       0.23384355 0.5052298 0.38518095 0.49876538
000040 8e 9a a3 3e da d5 fc 3e ee 70 bc 3e 0c 52 a7 3e
       0.31953853 0.49381906 0.3680491 0.32679784
000050 48 33 39 3e fc ea 94 3d 2d d3 30 3e 98 11 15 3f
       0.18085968 0.07271382 0.17268057 0.5822997
000060 da 33 08 3f 4d 7c b2 3e e2 88 27 3f 98 0a a1 3e
       0.5320412 0.3486046 0.6544324 0.31453395
000070 62 1d 5f 3f 9d 1f 7f 3f e6 15 26 3f 5c 1c 5b 3e
       0.8715421 0.99657613 0.64877164 0.21397537
000080 db 60 84 3f
       1.0342058

bn1.bias f4 [33]
000000 c8 ae c1 3d cb a4 4d bc 9d 04 8c bc e9 03 8c 3d
       0.09457165 -0.012551497 -0.017092044 0.06836683
000010 43 2a 6a bd 09 c4 1d bd 74 a1 80 3d f7 21 9f bc
       -0.05716921 -0.03851703 0.06280795 -0.019425375
000020 ae 96 b6 3d 97 46 f8 bc 76 c6 da 3d 8e a7 92 bb
       0.089154586 -0.030307097 0.10682385 -0.0044755405
000030 da 80 a3 bd 1c 2b 85 bc 1c 3c 9c bb 72 7e 85 bd
       -0.07983561 -0.016255908 -0.004767908 -0.06518258
000040 18 06 43 bd f9 5b 3e bd 79 f9 8d 3b fa d6 b5 bd
       -0.047613233 -0.04647443 0.004332718 -0.08878894
000050 c6 2c 0b bd b0 c3 01 bd dd 82 0b 3d 08 a9 1b 3d
       -0.033978246 -0.031680763 0.034060348 0.038002998
000060 52 ea 7b 37 13 42 71 3c 96 ae 8d bd f8 b7 2e be
       1.5015323e-05 0.014725226 -0.06918065 -0.17062366
000070 1d e1 0f bd 5c 42 39 3e 1a 03 8a 3e 08 d7 3c 3e
       -0.035126794 0.1809172 0.2695549 0.18441403
000080 2e f8 ac bc
       -0.021114435

bn1.running_mean f4 [33]
000000 ea f5 0e bd 53 87 12 c0 31 dc 50 3e c3 cb 0f 3f
       -0.03490249 -2.2895095 0.20396496 0.5617029
000010 54 fb 8e 3b 6d 9f 2c 3d 67 ce 30 3b 90 eb 96 bd
       0.0043634567 0.042144228 0.0026978494 -0.07369149
000020 33 27 54 bc 47 25 ff bc 0c 70 b6 bd 8e fa 30 bd
       -0.012948799 -0.031145705 -0.0890809 -0.043207698
000030 0a 36 a9 3c fc 8e 4d be 85 e2 4c c0 d4 e2 a3 3e
       0.02065565 -0.20074075 -3.2013257 0.32008994
000040 62 4f df 3d 8a 4a cb bd 41 24 fb bd 87 97 22 be
       0.10903813 -0.099263266 -0.12262774 -0.15878116
000050 91 3f 6a be f5 51 77 bd 74 fb 71 3d d6 bf 0c be
       -0.22875811 -0.060380895 0.059077695 -0.13745055
000060 3f ee f5 bd aa 7d 36 bb a7 48 f3 3d fc ff 7f bf
       -0.120083325 -0.0027845898 0.11879092 -0.99999976
000070 b3 f9 19 be 00 00 00 00 fc ff 7f 3f 00 00 00 00
       -0.15036659 0.0 0.99999976 0.0
000080 d8 6b 82 bc
       -0.015920565

bn1.running_var f4 [33]
000000 17 53 91 40 72 7e f6 3f 76 ab 89 40 35 7b b4 3e
       4.541393 1.9257338 4.3021803 0.3525025
000010 09 1b b9 3d e9 74 f3 3d d9 11 f9 3d ce ef 9b 3f
       0.0903836 0.11887533 0.12161607 1.2182558
000020 5d 24 0d 3e e9 74 8b 3e 3f 0e 9e 40 f0 6f b2 40
       0.13783403 0.27237633 4.939239 5.5761642
000030 b9 e7 b6 40 d8 04 9c 41 15 18 d6 40 63 d3 97 41
       5.7157865 19.502365 6.6904397 18.978216
000040 b7 ef 33 3e b8 a2 9a 3e 4d c9 25 3e 90 be 97 3e
       0.17571913 0.3020227 0.16190071 0.29637575
000050 cd 11 9f 40 60 a8 c1 3f b4 9d ed 3f ea ba 90 41
       4.970923 1.5129509 1.8563752 18.091267
000060 1b 77 d6 41 cc 99 a3 41 db 0b fa 41 04 00 00 00
       26.808157 20.450096 31.255789 6e-45
000070 a1 31 03 42 04 00 00 00 04 00 00 00 04 00 00 00
       32.798466 6e-45 6e-45 6e-45
000080 ef 42 a1 3e
       0.3149638

bn2.weight f4 [400]
000000 fa 48 b3 3e e4 7c fa 3e 17 4f 4a 3f 72 92 50 3f
       0.35016614 0.4892341 0.7902693 0.8147346
000010 fd 51 38 3f 43 b5 2a 3f 5a 3b 20 3f 8c 21 3f 3f
       0.72000104 0.66682833 0.62590563 0.74660563
000020 2c 83 11 3f aa 50 fd 3e ca 91 87 3f 31 fe 3d 3f
       0.5684078 0.49475604 1.0591366 0.7421599
000030 da b4 82 3f 46 30 8c 3f de f1 16 3f 14 c9 b8 3e
       1.0211442 1.0952232 0.5896281 0.3609091
000040 a7 20 01 3f f6 69 cc 3e 8d ad 2d 3f a9 72 8a 3f
       0.5044045 0.39924592 0.6784294 1.0816242
000050 72 eb c6 3e be 63 9a 3e 97 6d be 3e e9 29 3f 3f
       0.38851506 0.30154222 0.37192985 0.74673325
000060 7b d8 13 3f ca 14 0d 3f de fc 77 3f dd ca 85 3f
       0.577522 0.55109847 0.9687022 1.0452534
000070 51 a7 28 3f 3a aa ae 3e 40 94 7a 3f 23 38 59 3f
       0.65880305 0.34114248 0.9788246 0.8485128
000080 79 6a 66 3f 72 1b 4e 3f 58 be 2b 3f 38 ad 31 3f
       0.90006214 0.8051063 0.67087317 0.69404936
000090 88 93 2f 3f 5b c7 e5 3e 1a 71 f5 3e 6a f9 68 3f
       0.6858449 0.4487866 0.47937852 0.91005576
0000a0 bc cb 1f 3f 82 ec 57 3f 73 a9 f2 3e f3 45 6f 3f
       0.6242025 0.8434526 0.47394904 0.9346611
0000b0 66 98 05 3f 0e 72 5f 3f 9f c3 d1 3e ba f0 8f 3f
       0.52185667 0.8728341 0.4096956 1.1245339
0000c0 da 8c 88 3f f0 a6 7e 3f 17 69 83 3f 52 d6 d7 3e
       1.0667984 0.99473476 1.0266446 0.421557
0000d0 01 85 e9 3e e4 99 39 3f d2 3f 80 3f 57 c0 2b 3f
       0.45609286 0.72500443 1.0019476 0.6709036
0000e0 a9 10 05 3f 5b ca 07 3f 30 99 84 3f c8 e4 05 3f
       0.51978546 0.53043145 1.0359249 0.5230222
0000f0 ad 1d f8 3e 3d c5 54 3f 53 24 cc 3e 15 92 2b 3f
       0.4846014 0.8311346 0.39871463 0.6701978
000100 9b b7 91 3f 73 91 d7 3e 8a ab 8c 3f c0 af 78 3f
       1.1384157 0.42103156 1.098985 0.97143173
000110 29 e4 01 3f d4 08 31 3f e9 d8 09 3f 57 0c d2 3e
       0.5073877 0.69154096 0.53846604 0.4102504
000120 f3 6e 18 3f ad 5e f7 3e 93 71 0b 3f 39 d2 be be
       0.59544295 0.4831442 0.54470176 -0.37269762
000130 cb 58 c6 3e ac 4a 54 3f 93 90 de 3e 11 7e 61 3f
       0.3873962 0.8292644 0.43469676 0.8808299
000140 5e 8d 71 3f c7 12 c2 3e 62 0b 41 3f 31 80 4b 3f
       0.94356334 0.3790495 0.75407994 0.7949248
000150 19 47 a2 3e ba 41 d0 3e fd 07 2c 3f a7 83 4f 3f
       0.31694868 0.40675145 0.6719969 0.8106026
000160 69 be 22 3f 40 0f 0d 3f ef a9 0f 3f d8 a6 90 3f
       0.6357179 0.55101395 0.56118673 1.1300917
000170 00 71 13 3f df f5 d9 3e d8 34 6e 3f 9c f7 34 3f
       0.575943 0.42570397 0.93049383 0.7069032
000180 d7 54 38 3f 99 0f 4e 3f db c8 a0 3f 42 b5 28 3f
       0.72004455 0.8049255 1.2561296 0.6590158
000190 96 70 80 3f ff 37 41 3f c9 89 ed 3e 32 29 8c 3f
       1.0034359 0.7547607 0.46394184 1.0950072
0001a0 80 2b 70 3f b5 f6 45 3f 32 e9 5f 3f 5f 73 45 3f
       0.93816376 0.7732957 0.874652 0.7712917
0001b0 aa be 7f 3f 34 24 82 3f 34 c6 67 3f 15 e2 64 3f
       0.99900305 1.0167298 0.9053681 0.89407474
0001c0 3e 33 24 3f b6 de ae 3e e7 b7 25 3f 74 0a 83 3f
       0.6414069 0.3415429 0.6473374 1.0237565
0001d0 27 37 1a 3f b5 79 98 3f 12 4f 7a 3f 05 9c ea 3e
       0.60240406 1.1912142 0.977769 0.45822158
0001e0 37 2e 15 3f 48 21 5d 3f 86 7d 62 3f b8 bc ff 3e
       0.58273643 0.8637891 0.88472784 0.49948668
0001f0 de c2 8f 3e 0e c9 6d 3f 98 05 45 3f 1a 53 e3 3e
       0.2807836 0.9288491 0.7696166 0.4439934
000200 c9 4e c7 3e 68 c2 cf 3e d5 90 29 3f d0 5f 62 3f
       0.38927296 0.40578008 0.6623662 0.8842745
000210 88 4f 36 3f d4 53 af 3e 93 3c e6 3e b3 d4 ac 3e
       0.71215105 0.34243643 0.4496809 0.33756027
000220 a0 96 98 3f 03 28 10 3f 91 7d 18 3f c7 8d ea 3e
       1.1920967 0.56311053 0.595666 0.45811293
000230 09 9c 68 3f 46 13 85 3f 7c 9f 66 3f ff 69 65 3f
       0.9086309 1.0396507 0.90087104 0.8961486
000240 4f 7e 26 3f ef fa d3 3e 30 ad 78 3f 9b 77 18 3f
       0.6503648 0.41402385 0.97139263 0.59557503
000250 94 89 0a 3f d1 bd a7 3f 84 c4 26 3f 11 6e b4 3e
       0.5411618 1.3104802 0.6514361 0.35240224
000260 bd 23 8b 3f 95 cd 39 3f f0 48 f7 3e 86 a3 29 3f
       1.0870281 0.7257932 0.48297834 0.6626514
000270 7a d7 87 3f 1e f8 8a 3f 30 9c 46 3f 3e dc 64 3f
       1.0612633 1.0856969 0.77582073 0.8939856
000280 67 06 0e 3f 52 74 93 3f 2a 2e 7c 3f 00 e5 3b 3f
       0.5547852 1.1519873 0.9850794 0.733963
000290 1e 7c bd 3e 2c 1f 2e 3f 46 6e 46 3f 88 35 22 3f
       0.37008756 0.68016315 0.77512014 0.6336293
0002a0 8a b9 71 3f cb 2e d7 3e a4 48 6a 3f a3 0d 6a 3f
       0.94423735 0.42027888 0.9151709 0.9142706
0002b0 da c0 44 3f 0c 01 71 3f dc 85 77 3f 42 d9 73 3f
       0.7685677 0.9414222 0.9668863 0.95253384
0002c0 d6 5e 00 3f 89 b5 9c 3f 8e b9 ef 3e c5 0a 31 3f
       0.5014471 1.22429 0.46821254 0.6915706
0002d0 50 bb 19 3f 7d 3a 3c 3f de 6f 25 3f 93 cb 7a 3f
       0.6005144 0.73526746 0.6462382 0.9796688
0002e0 74 d0 81 3f 46 00 81 3f 53 58 2b 3f 2e 09 97 3e
       1.014174 1.0078208 0.6693165 0.2949919
0002f0 c6 ec 8b 3f 42 ab ef 3e 3b 9e 8a 3f ac ec ff 3e
       1.0931633 0.46810347 1.0829538 0.49985254
000300 85 ac 61 3f 46 b3 42 3f 5f 64 ad 3e 53 fb f2 3e
       0.8815387 0.760548 0.3386564 0.4745737
000310 f9 67 59 3f 0e 30 c0 3e 65 ee bd 3e 41 bd b5 3e
       0.84924275 0.37536663 0.37095943 0.35495952
000320 f5 9f 0e 3f 6c 7c 76 3f f4 40 b8 3e fb 23 10 3f
       0.55712825 0.962836 0.35987055 0.563049
000330 d9 17 46 3f 4c f9 18 3f 25 c9 29 3f a4 86 47 3f
       0.7738014 0.59755397 0.6632255 0.7793982
000340 7a 67 6c 3f 45 01 e7 3e eb d9 4a 3f 06 2e 02 3f
       0.9234539 0.45118156 0.79238766 0.50851476
000350 d4 2a 15 3f fd 01 99 3f 52 61 40 3f 54 9a 6f 3f
       0.58268476 1.1953732 0.751485 0.9359486
000360 be e1 80 3f fc a3 cc 3e 15 b2 57 3f d3 fe 89 3f
       1.0068891 0.3996886 0.84256107 1.0780891
000370 65 d4 e1 3e 7c c3 8a 3f e5 fa 8a 3f 22 20 94 3f
       0.44107357 1.0840907 1.0857817 1.1572306
000380 4d 75 f1 3e ac 26 2a 3f d4 4a 08 3f fb 12 47 3f
       0.47159806 0.6646526 0.5323918 0.77763337
000390 c7 8f 28 3f dd 39 59 3f 0b 31 76 3f 89 47 35 3f
       0.65844387 0.8485392 0.96168584 0.7081228
0003a0 99 77 b6 3e 2c c3 11 3f 0f f4 37 3f 19 a4 0e 3f
       0.3563812 0.56938434 0.7185678 0.55719143
0003b0 96 60 48 3f 12 30 4d 3f cb 65 29 3f d3 9e 1c 3f
       0.7827238 0.80151474 0.6617095 0.61179847
0003c0 64 17 60 3f 03 32 19 3f f1 e9 cb 3e 75 b3 81 3f
       0.8753569 0.59841937 0.3982692 1.0132891
0003d0 af ba 4b 3f ae 49 95 3f 13 fb ca 3e cd 3e 80 3f
       0.7958173 1.166311 0.3964468 1.0019165
0003e0 31 ab 18 3f 92 22 86 3f e8 cc 19 3f 4b 04 59 3f
       0.5963622 1.04793 0.6007829 0.84772176
0003f0 e5 08 38 3f 65 d7 54 3f fc fd 2b 3f e0 d8 cf 3e
       0.7188857 0.83141166 0.67184424 0.4059515
