checkpoint_critic.pth (torch_old, 550466 bytes, 13 tensors)

fcs1.weight f4 [400, 33]
000000 5a c7 a4 3d e1 6c 88 bc 86 dd 74 bc c3 d2 6c 3b
       0.08045836 -0.01665348 -0.014945393 0.0036136366
000010 c7 0b e9 3d c4 29 c9 bc 92 f2 d8 bc 43 a4 94 3c
       0.113791995 -0.024556048 -0.026482854 0.018144732
000020 64 ec 34 3d 2e 79 86 3d 19 0b 20 bc ac fa 20 bc
       0.044170752 0.06566082 -0.009768271 -0.00982539
000030 fb 45 ab bc 3d fa 6c bd d0 68 41 bc 86 5c 9f 3d
       -0.020907393 -0.057855833 -0.011804774 0.07781319
000040 23 ba ef 3b 6b 09 f5 bb 82 ba dd 3c 63 59 ea 3d
       0.0073158904 -0.0074779293 0.027066473 0.114428304
000050 d2 5e a5 bc cd bc 07 bd 20 91 d5 3c 9d a6 ee bc
       -0.020186815 -0.03313904 0.026070178 -0.029132182
000060 5c d7 a7 3c bc 2f 5f 3c cc 8d 71 3c 0f 9b a0 3d
       0.020488434 0.013622221 0.01474328 0.07842075
000070 cc cd bf bd 3b b2 89 3d 35 c4 a7 3d 85 8b 90 bc
       -0.093654245 0.06723448 0.081917204 -0.017644653
000080 15 98 95 3d 7d ff db bc 8d 95 94 bc 4d 1a fb bc
       0.07304398 -0.026855225 -0.018137718 -0.03065219
000090 89 cb 8f 3c 16 07 49 bd ff 7f 76 3d 67 57 a8 bc
       0.017553108 -0.049079023 0.06018066 -0.02054949
0000a0 72 b2 bd bb d2 ad af 3b 44 d3 d5 bb d2 71 29 bd
       -0.0057890946 0.005361297 -0.006525429 -0.041368313
0000b0 43 32 94 3c f9 94 a5 3d 15 bc 61 bd 99 45 96 3d
       0.018090373 0.08085055 -0.05511101 0.073374934
0000c0 ee eb 2d 3d 94 32 31 3e 34 98 22 bb 92 36 12 bd
       0.04246133 0.1730445 -0.0024809958 -0.035696574
0000d0 97 a0 8c bd 17 5e f6 bc 2e 86 e8 bc e6 50 12 3d
       -0.068665676 -0.030074162 -0.028384294 0.035721682
0000e0 31 68 76 bd d9 50 17 3c b5 64 6c 3d 78 14 92 3c
       -0.06015796 0.009235584 0.05771323 0.017832026
0000f0 0d 58 55 bc ec cd 0a 3e 97 72 62 bc 72 a8 4a 3d
       -0.013021481 0.13555115 -0.013821266 0.04947705
000100 87 cf 36 bc c4 33 d2 3c c0 e6 49 bd 37 59 c7 bd
       -0.011157877 0.02565945 -0.049292326 -0.09733813
000110 40 cb 4d 3c 97 73 05 3d 9d 60 db 3d 73 1a 16 3d
       0.012560666 0.03258094 0.10711787 0.036646318
000120 5d a7 cf bd 8f f6 e5 3c 5c b1 84 3d ad ae 2b 3d
       -0.10139344 0.02807167 0.06479141 0.04191463
000130 97 e8 66 bb 23 f0 f6 bb 97 25 ba bc 4f 54 61 bc
       -0.003523385 -0.0075359507 -0.022723002 -0.013753011
000140 30 31 ff bd 00 7e 9c bd 96 ef 4d bd 2f b9 3f 3d
       -0.12460554 -0.0764122 -0.050277315 0.046807464
000150 94 18 9f 3a 00 74 cd 3c 2d e7 2d be b1 13 56 3e
       0.0012138062 0.025079727 -0.16982718 0.20905949
000160 bc 39 94 3c c0 c9 36 bd a8 1b 8d bc c5 42 a2 bd
       0.018093936 -0.044625998 -0.017225102 -0.079228915
000170 68 92 7d 3b f3 c3 21 3e 66 50 6f 3d f1 e9 0b 3e
       0.0038692001 0.15797405 0.058426283 0.1366346
000180 a1 32 e7 3d ee a6 6e 3d 92 97 97 3d 0f 9f e2 3c
       0.112889536 0.058264665 0.074019566 0.027663736
000190 65 60 46 bd b2 9b 7a b9 ff b8 38 3d 98 2b 47 bd
       -0.048431773 -0.00023899859 0.0450983 -0.04862556
0001a0 35 2a c0 bc 7e e0 00 3d 5a 00 2c 3d 9f 9b b6 3c
       -0.023457626 0.031464092 0.041992523 0.022291003
0001b0 0b 70 7e bd ed 44 f0 bb ca ec 15 3d d1 86 5f bd
       -0.06211857 -0.0073324353 0.036602773 -0.05457193
0001c0 3c 6d 8b 3c 7b 4b 75 3d 01 59 ea 3c b7 cf 05 3e
       0.01701986 0.059886437 0.028606893 0.13067518
0001d0 9e 11 a0 3d 61 06 8a 3d 22 b5 a3 bc f2 02 11 be
       0.0781586 0.06739498 -0.019983832 -0.1416128
0001e0 58 d5 6e 3d 40 10 49 bd df c0 8c 3d 36 5d 16 3d
       0.05830893 -0.049087763 0.06872725 0.036709987
0001f0 b7 23 0f 3e d3 d0 ea bc ae 30 5e 3b 7d 25 ed 3c
       0.13978468 -0.028664028 0.0033903527 0.02894854
000200 e5 a3 4c 3d 2f 2a a4 3c a2 7e 29 3c 6d be 85 bd
       0.04996099 0.020039646 0.010345133 -0.065304615
000210 2b 5f f6 3c bd 07 10 bd 58 b8 31 bd e4 8f c1 3d
       0.030074676 -0.03516363 -0.043388695 0.09451273
000220 52 0b 3e 3b ec f5 99 bd 61 8c 0e bc bd 0b 96 3c
       0.0028998447 -0.07517609 -0.008700461 0.018316144
000230 3c 87 9e 3d dd fc eb 3c f5 d4 b5 3c 97 e0 f0 bb
       0.07740638 0.028807098 0.022196272 -0.007350992
000240 25 5e 70 bc c4 83 22 3d ad 27 e9 3c b7 15 4c 3c
       -0.014670883 0.039676443 0.028461302 0.012456349
000250 2f ed 48 bd 41 d5 20 3d d4 b1 55 bd dd 87 07 bd
       -0.04905432 0.039265875 -0.052171543 -0.033088554
000260 af c9 18 bb a8 7b 9e 3c 24 8f 46 3c 32 e7 31 3d
       -0.0023313572 0.019346073 0.012119088 0.043433376
000270 17 22 9a 3c a2 09 02 bd 91 48 0d bd 1e 65 21 3c
       0.018815083 -0.031747468 -0.034493033 0.009850768
000280 6a 73 82 bd 96 5b 9c 3d e0 16 d9 3c e1 6a a1 bc
       -0.0636967 0.07634656 0.026500165 -0.019704284
000290 3a 40 15 3e 72 42 93 bd 9b 01 d5 3c a1 d3 8d bd
       0.14575282 -0.07190408 0.026001742 -0.06925131
0002a0 4d 85 fe 3c f2 57 f0 bb 7a 4d c6 bb 1f 69 93 3d
       0.031069422 -0.0073347026 -0.0060517164 0.07197785
0002b0 1d c2 26 3d f9 4b 90 3b 52 04 3a 3c 75 d9 4e 3c
       0.040712465 0.004403588 0.011353569 0.012625088
0002c0 8d 63 0f bd 0f de 83 3c c4 39 8a 3d 12 ae b7 bc
       -0.03500705 0.016097097 0.06749299 -0.02242187
0002d0 9c c3 8c 3d 21 f4 5c bd 15 a2 85 3d cf f1 a7 3c
       0.06873247 -0.053943757 0.06525055 0.020501046
0002e0 53 a7 cd 3d a5 b1 3d 3b 73 37 00 3d 4d 68 65 3c
       0.1004168 0.0028944996 0.03130288 0.014001918
0002f0 ed a9 62 bb ec aa 25 3c da 6f 15 3d c1 4e 85 bd
       -0.0034586147 0.010111552 0.036483623 -0.06509162
000300 54 74 22 3c be c2 d9 bc 5d c6 3d bd 59 ed 09 3d
       0.00991543 -0.026582118 -0.046331752 0.033673618
000310 40 4b 16 bb 2c 91 a7 bc 97 34 99 bb 76 a4 f3 bc
       -0.0022933036 -0.020454966 -0.0046754587 -0.029741507
000320 51 7e cc 3d 40 8e 2a 3e 79 b4 df 3c f4 a7 d4 bd
       0.099850304 0.16655827 0.027307736 -0.10383597
000330 a9 ef a4 bc db 7d 50 3c 59 28 c7 3d 0c 0a 84 3d
       -0.02013381 0.012725319 0.097244926 0.06447229
000340 6d fa a6 3d 34 4d ad bd 1e 82 3d bd 51 cc cf 3b
       0.08153234 -0.08461991 -0.046266668 0.006341495
000350 6d ef 77 3d dd bb c4 bd f7 d5 61 3d 6c f8 2f bd
       0.06053107 -0.096061446 0.055135693 -0.042961523
000360 53 8c 8e bd f1 14 d8 bd f7 4e 16 bd f9 5a dd 3d
       -0.069603585 -0.10550869 -0.0366964 0.10808367
000370 6c cd e7 bc aa 64 83 bd a9 d9 73 3c 23 90 41 bd
       -0.028296195 -0.064156845 0.014883437 -0.0472566
000380 08 34 a3 3c 53 1b b0 bd f3 ab a5 3d 16 ff 30 bd
       0.019922271 -0.08598962 0.08089437 -0.04321202
000390 74 f8 a9 bd 61 bf 3d bc 71 51 aa bb 85 58 ca bc
       -0.08299342 -0.011581273 -0.005197697 -0.024700413
0003a0 ef 21 05 bd 51 e7 b6 3b cd aa e7 3d 43 11 e4 bc
       -0.032503065 0.0055817743 0.113118745 -0.027840262
0003b0 c9 c4 ba 3c ca d1 9c 3b 58 e3 6d 3d eb 13 0a 3c
       0.022798913 0.004785751 0.05807814 0.0084276
0003c0 58 4b 66 3a 69 6c 01 bc 9f 27 99 bd 53 35 fa 3c
       0.0008785031 -0.007899382 -0.0747826 0.030543005
0003d0 0f cd 98 3b 1b 30 0f 3d 8a bb d2 bc f6 69 ec bd
       0.0046631168 0.034957986 -0.025724191 -0.11543648
0003e0 8d 93 3e 3d c8 5b 4e bc f9 3d 9b bc 26 37 05 bd
       0.046527434 -0.012595125 -0.01895045 -0.032523297
0003f0 68 98 26 3c c1 cb 8b bc d2 33 2f ba e1 e6 11 3c
       0.010168172 -0.01706493 -0.0006683442 0.0089051435

fcs1.bias f4 [400]
000000 48 08 05 be e0 de a8 bd b7 fc 50 3a 21 42 f5 b9
       -0.1299144 -0.08245635 0.0007972228 -0.0004677931
000010 37 53 3b be 4b 96 11 be 33 90 7c bd 04 2e 2e be
       -0.18293463 -0.14217488 -0.061660957 -0.17009741
000020 9c 62 a2 bd cf 1f c0 bd c4 f2 a6 3d 50 51 fd bd
       -0.079289645 -0.09381067 0.081517726 -0.12369025
000030 1d e0 0f 3e cb 5d c3 bd d6 21 12 be be 47 5a bd
       0.14050336 -0.09539374 -0.1427072 -0.053291075
000040 6a 77 e9 bd 07 f0 21 be 2e 95 4a be a9 95 84 bd
       -0.113997295 -0.1581422 -0.1978347 -0.06473858
000050 b9 21 29 be bb 7d 07 be ba 78 ae bd 95 01 17 be
       -0.1651677 -0.13231556 -0.085191205 -0.14746697
000060 5e f0 a4 bd b5 8f 41 be 74 6b ba bd 23 7e 9a 3d
       -0.08053659 -0.18902476 -0.09102526 0.0754359
000070 b5 90 54 bc 97 46 92 bd c5 23 0a bd 8d 54 ca 3d
       -0.012973954 -0.0714237 -0.03372552 0.09879408
000080 34 ad 11 3e db 29 71 bd 96 7b b9 bd 3d 27 a0 bd
       0.14226228 -0.058877807 -0.09056775 -0.07819984
000090 11 81 22 be 8d 6e 1b 3e b8 66 bc 3c e1 96 c8 bb
       -0.15869547 0.1517889 0.022998199 -0.006121502
0000a0 c9 02 be 3d 40 b0 49 bd ed 83 e0 3c b9 63 76 bd
       0.09277875 -0.04924035 0.027406657 -0.060153697
0000b0 da f6 fb 3a bc 12 3b 3b 6a 7b 40 3d d0 85 5d 3d
       0.0019223348 0.0028545102 0.046992697 0.05408269
0000c0 3b e2 a1 bc e3 32 2e be f2 71 6e bd 2d f1 a1 3d
       -0.019761195 -0.17011599 -0.058214135 0.07907329
0000d0 50 5d 4e 3d d3 48 24 3d 5c dc fe bd 92 0a ad 3d
       0.05038196 0.040108513 -0.12444374 0.08449282
0000e0 fd ed 2d bd c9 b2 10 be 26 34 97 bd f6 2c 47 3d
       -0.04246329 -0.14130701 -0.073829934 0.048626862
0000f0 5b b8 24 be 8c 86 da bd ad ac 13 3e 72 d5 da bd
       -0.16085951 -0.10670194 0.1442134 -0.10685243
000100 5b 76 07 be eb 50 8f bd e8 ac 7b bc 03 df 3c be
       -0.13228743 -0.06997856 -0.015361048 -0.18444447
000110 d4 6f e4 bd 47 e6 c7 bd 25 03 35 bd 32 95 58 bc
       -0.11154142 -0.09760719 -0.044192452 -0.013219165
000120 d5 a4 90 3c 2a 74 11 bd d0 c4 0c 3d 66 72 7b 3c
       0.017656723 -0.035511173 0.034367383 0.015347099
000130 95 f0 15 be e4 7d 1d be 5e 9d 5d 3d 17 09 a1 bd
       -0.14642556 -0.15380055 0.054105155 -0.07863062
000140 22 60 c4 bd 81 db e6 bd 32 61 b2 bd aa db a4 bd
       -0.095886484 -0.11272336 -0.08709945 -0.0804971
000150 43 a6 fa bc f8 f2 1f 3d cb 2f 86 bd 61 61 9f 3d
       -0.030596858 0.039050072 -0.065520845 0.077822454
000160 ff 0a db 3d 8a 7d 1e be 3c 15 04 be 2f 3b fa bd
       0.10695457 -0.15477577 -0.12898725 -0.122183196
000170 17 09 2e bd 85 8f 34 bd d9 cc 1a be 87 cb f6 bd
       -0.042489138 -0.044082183 -0.15117206 -0.120505385
000180 80 75 8a bc a8 94 59 3c 23 5c 98 bd c3 eb 36 3e
       -0.016901731 0.013280071 -0.07439449 0.17863373
000190 ff 5e af bd a9 02 b2 3c ca aa 07 be 39 f2 f2 3c
       -0.08563041 0.021729784 -0.13248745 0.029656516
0001a0 3f ae cf bc e6 74 21 3e 34 fe 17 3e 91 25 ae bd
       -0.025351642 0.1576725 0.14843065 -0.08503259
0001b0 be b1 89 bc 84 9b a3 bd c1 70 42 bc fe 37 00 be
       -0.016808387 -0.079886466 -0.011867703 -0.1252136
0001c0 02 68 a3 bd be 05 e6 bd 2a 9d b4 3c d2 66 d0 bb
       -0.07978822 -0.11231564 0.022047598 -0.0063599134
0001d0 3e e5 46 3c a6 ab 7f bd 44 35 43 be a3 05 1e be
       0.0121396165 -0.062419556 -0.19063288 -0.15431838
0001e0 1f 7d 39 be db a7 ff bd 78 4e 0a be 74 3b cf bc
       -0.18114136 -0.12483188 -0.13506496 -0.025296904
0001f0 08 5e 10 be 72 a7 87 bc 2b 8f 27 3d 42 58 47 bd
       -0.1409837 -0.016559336 0.04090802 -0.048668154
000200 84 b8 8c bb a2 22 03 3d 6e 79 1a be c1 ea fa 3d
       -0.004294457 0.03201545 -0.15085384 0.12251807
000210 69 9a fb 3d 34 9d 71 3d fa 0e b8 bd 89 7d 4e b9
       0.12285311 0.05898781 -0.089872316 -0.00019692456
000220 56 08 ac bd 8e 5f 47 bc 95 87 81 3d 0d 1a 97 bd
       -0.084000275 -0.012168778 0.06324688 -0.07378016
000230 81 35 ca bc a5 27 a7 bd de fd f5 bd ed cd 87 3d
       -0.024683716 -0.081618585 -0.12011312 0.06631074
000240 2e c9 48 be 64 8a e9 bc d8 ba 5a bd 60 de f7 bd
       -0.19607994 -0.028508373 -0.053400844 -0.121029615
000250 49 0c 63 be df 7e 08 be b6 20 df bd a4 c2 f4 bd
       -0.22172655 -0.13329647 -0.10894911 -0.11951187
000260 0f e6 53 bc 6e d9 27 be 9b c6 83 bd 9d f8 1d be
       -0.012933268 -0.16391537 -0.06434365 -0.1542687
000270 31 f2 00 bd 65 f8 41 be ee a4 5a bd 88 3a 83 bd
       -0.03148097 -0.18942411 -0.053379945 -0.06407648
000280 72 a7 e7 bd f8 79 86 3d 2c 14 ba bc 50 3d 0f 3d
       -0.113112345 0.065662324 -0.022714697 0.03497058
000290 90 2c c6 3c 4e e5 37 bd be 77 29 3c 8d 08 9f 3d
       0.02419117 -0.044896416 0.01034349 0.07765303
0002a0 bf e3 00 be 0c 3d c0 bd 48 77 75 bd 97 91 1f be
       -0.12586878 -0.09386644 -0.05992821 -0.15582882
0002b0 93 47 90 bd 0e a8 d7 bd 63 46 07 be 41 61 8a 3c
       -0.07044902 -0.10530101 -0.13210444 0.016892077
0002c0 a6 6c 55 be 29 a0 15 be bf c0 53 3c 3e 5a 71 bd
       -0.20842227 -0.14611878 0.012924372 -0.058923952
0002d0 2f 4a 07 3c 11 5f 9d bd 87 0e 41 be fa 0a 41 be
       0.008257433 -0.07684148 -0.18853198 -0.18851843
0002e0 16 cc d8 bd ec 0f 22 be 67 8d 34 be e7 0d d2 bd
       -0.10585801 -0.15826386 -0.17632066 -0.10256558
0002f0 23 a9 89 3d 8f b3 d3 3b f3 a4 93 bc 5e 5e 15 be
       0.067217134 0.006460614 -0.01802299 -0.1458678
000300 02 c8 07 be b4 02 7b 3d da 06 90 bd fb 2f 0a bd
       -0.1325989 0.061281875 -0.07032557 -0.033737164
000310 9d a1 15 be 70 08 04 be f8 66 e9 3b 2e 91 ea bd
       -0.14612432 -0.12893844 0.0071228705 -0.11453472
000320 0e 95 71 bd 61 19 c5 bd e9 3d 10 be 80 0b 28 be
       -0.05898004 -0.09623981 -0.14086117 -0.16410637
000330 d2 cd 30 be 09 8a 25 3e b4 ee db 3b 44 13 1c bd
       -0.17266014 0.16165937 0.0067118052 -0.03810431
000340 19 d4 6f 3d b9 8e ae 3c 19 a7 57 bd 4b b8 c9 3d
       0.05855188 0.02130829 -0.05264959 0.09849604
000350 b7 7a 74 bd 30 62 26 be af b7 77 3d 17 ad e9 bd
       -0.059687342 -0.16248393 0.06047791 -0.114099674
000360 90 9f e1 bd b5 e6 07 bc 2a 2b 89 bd 47 b4 cd 3d
       -0.11016762 -0.008294751 -0.06697686 0.10044151
000370 85 e4 71 be 50 a7 22 be 27 68 fc bd e5 39 e9 bd
       -0.2362233 -0.15884137 -0.12324553 -0.11387996
000380 71 bf 6b 3d 81 1a b5 bd 3a 22 cb 3c 4b d5 88 bd
       0.05755562 -0.08842946 0.024796594 -0.066813074
000390 03 81 0c 3d db d6 e9 bd 94 6f cd 3c 7e c3 87 bc
       0.034302723 -0.114179336 0.025077619 -0.01657271
0003a0 f9 70 33 bd 9c 9b 17 be 72 ef c9 bd 57 c1 2b bd
       -0.04380891 -0.14805454 -0.09860124 -0.04193243
0003b0 d7 09 07 be a2 8f 28 be f4 52 11 be 93 25 10 be
       -0.13187347 -0.16461042 -0.141918 -0.14076833
0003c0 61 b1 42 bc 0b 2a 88 bd dc 01 7f 3c 93 aa 43 3c
       -0.011883111 -0.06648644 0.015564408 0.0119425235
0003d0 ab 0a d6 bd 86 62 5f bd 43 ac ab 3d b5 91 27 3c
       -0.104512535 -0.05453732 0.08382466 0.01022761
0003e0 41 3b f3 bd 8b 1f 10 be 9e 0f 32 3c 57 4c 69 b9
       -0.11876536 -0.14074533 0.010867981 -0.0002224905
0003f0 46 be b2 bd 18 47 1f be a4 3b ab 3d 85 4d 24 ba
       -0.08727698 -0.15554464 0.08360985 -0.0006267655

fc2.weight f4 [300, 404]
000000 24 57 4a 3d 50 4a c3 3b ca 95 84 bd fb 17 49 bd
       0.04939951 0.0059597865 -0.064738825 -0.049095135
000010 a0 9f 81 bb 49 17 eb bd 00 8c 92 bd e7 95 01 3e
       -0.0039557964 -0.11479051 -0.07155609 0.1265484
000020 e5 b4 84 3d bc 8b 6b 3d 53 2f 9d bd 74 98 03 bc
       0.064798154 0.057506308 -0.07675042 -0.008031953
000030 d0 69 47 3c 4c 86 34 bd 23 00 b2 3b 89 36 ca 3d
       0.012171224 -0.044073388 0.005432145 0.09873683
000040 52 7b 26 bd 26 f7 2f bd e5 72 2f 3d 16 3c 0e bd
       -0.04064495 -0.04296031 0.04283418 -0.03472527
000050 3e 75 c8 3d 5a 68 1d 3c 3d 52 a5 3c 47 bd 82 bd
       0.09787987 0.009607399 0.020180816 -0.06383758
000060 83 74 97 bd 8c ef 35 3d 1b 21 9b 3c c0 fc 72 3c
       -0.0739527 0.044417903 0.018936684 0.014830768
000070 fb e3 b0 bb 2c fe 49 3d 16 7c 17 3d b7 90 2a bd
       -0.005398271 0.049314663 0.036983572 -0.041641917
000080 be 36 4f 3d ec 13 76 3d 61 37 95 bc 9d 46 72 3d
       0.050589316 0.060077593 -0.018214883 0.059149373
000090 00 a2 19 3d 67 27 39 be 08 aa 5c 3d 1c b1 36 bd
       0.03750801 -0.18081437 0.053873092 -0.0446025
0000a0 2a 15 04 3d e8 6b c2 3d 95 37 07 3e 9d 08 8c 3d
       0.032246746 0.09493238 0.13204797 0.0683758
0000b0 0b e4 16 3e ff ef 54 3d ab 1e d6 3d 47 34 6b bd
       0.14735429 0.05198669 0.10455068 -0.057422902
0000c0 01 f8 8f bd f4 da c9 bc a4 ed 70 3d c9 e4 48 bd
       -0.07029725 -0.024640538 0.05882038 -0.04904631
0000d0 9e d0 36 3c a9 df 15 3d 7f 91 cc bc 6b 95 6d bd
       0.011158137 0.036590252 -0.024971722 -0.058003824
0000e0 1a 29 b7 3c bc 90 3c bd 02 94 43 3c 4a 1c 90 3d
       0.022358466 -0.046036467 0.011937143 0.07036646
0000f0 7f 48 27 be bb b6 6c 3c 14 4d 3a 3d 2c 73 93 3d
       -0.16336249 0.014447863 0.045483664 0.07199702
000100 42 df 97 3d 9e be e5 bb 60 16 5b bc 67 7d af bc
       0.0741563 -0.0070112487 -0.013372034 -0.021422101
000110 9b 54 35 3c 4b 19 6c bd ec 30 b2 bd c3 3d 9e 3c
       0.011067535 -0.05764131 -0.08700737 0.01931656
000120 fc cf 17 3b 6e df 91 bd 7c 60 d7 bb 94 d2 94 3d
       0.002316474 -0.07122694 -0.006572781 0.07266727
000130 34 f7 38 bd 22 80 85 3d 56 56 8f bc b0 d8 80 bc
       -0.045157626 0.0651858 -0.017497223 -0.015728325
000140 b9 bb a3 3c 58 a8 38 bc a1 38 85 bd 6a 31 1f be
       0.019986974 -0.011270605 -0.06504942 -0.15546194
000150 f2 bc 4d bd 24 41 2c bd 4c 44 97 bd be 69 97 3c
       -0.05022902 -0.04205431 -0.073860735 0.018483039
000160 44 a0 cb bc 01 66 ce 3d 8c 12 cc 3b 47 59 71 3b
       -0.024856694 0.100780495 0.006227797 0.0036826895
000170 b4 ce f6 3c 55 23 23 bd 50 90 ec 3d 6d b2 7f bc
       0.03012786 -0.039828617 0.11550963 -0.015606505
000180 7a 11 ba bb 1b 84 c5 3c 71 97 a0 bc 06 83 5c 3c
       -0.005678353 0.024110844 -0.019603463 0.013458973
000190 4b 3f 9e 3c 60 63 08 3e bd 0c 83 3b cd 22 35 bd
       0.01931729 0.13319159 0.0039993213 -0.04422264
0001a0 03 99 e1 ba bf 79 f7 bc 48 ed 74 bd 18 d2 04 bd
       -0.0017211739 -0.03020942 -0.0597966 -0.032426924
0001b0 47 f3 5b 3d db f3 ca 3c d8 10 cd 3d 08 0f 70 bd
       0.053698804 0.024774482 0.10012978 -0.058608085
0001c0 d9 dc 87 bd e9 f9 fc 3c 5e ab 9f bd bf d7 0f bd
       -0.0663392 0.030880885 -0.077963576 -0.03511786
0001d0 a8 57 c4 3a 40 10 b9 bd c6 ca b7 bd 37 80 12 bd
       0.0014979737 -0.090363026 -0.08974223 -0.035766806
0001e0 20 20 4f 3d 5a b9 99 3d d9 ec 77 3b 30 03 84 bc
       0.050567746 0.07506056 0.0037830381 -0.016114801
0001f0 13 39 1a bd 98 d1 12 3d 6d 5f 6b bd d7 f7 2f bd
       -0.037652086 0.035844415 -0.057464052 -0.042960968
000200 6b ad ed bc 0e a7 02 bc f2 a1 9b 3c 6d 47 0b 3c
       -0.029013356 -0.007974399 0.01899812 0.008500916
000210 22 4f 9a 3d 15 62 cb bd b3 cc 02 bd 48 e8 0a be
       0.07534625 -0.09930817 -0.031933498 -0.13565171
000220 77 fb ae bc 55 39 1d bd 00 26 3b bd d5 cc 95 3c
       -0.021360142 -0.038384754 -0.045690536 0.018286148
000230 1a 32 1c 3e bf a4 0b 3e 6f 6b ce bc 58 37 1e 3d
       0.15253487 0.13637064 -0.025197713 0.038627
000240 c9 93 9d 3b 1f 58 64 bd a7 d1 37 3d 11 3f 19 bc
       0.004808877 -0.0557481 0.044877674 -0.009353415
000250 92 e7 91 3d a3 a1 29 3d 03 f5 9c bc f8 77 38 3d
       0.07124247 0.041413914 -0.0191598 0.045036286
000260 09 51 f8 bb 01 4b 8a 3d 19 ea 43 bd f4 8d 50 3d
       -0.0075780195 0.06752587 -0.047830675 0.050916627
000270 69 ac d0 3d 27 1c 25 bc 11 f2 10 3e c3 c5 2c bd
       0.10189135 -0.010077513 0.14154841 -0.042180788
000280 74 a1 90 bd a2 e6 83 bd 84 04 0b 3d 59 5c 48 bd
       -0.07062045 -0.06440474 0.033939853 -0.048916195
000290 43 e9 28 3d 7b 04 83 bb 8d 81 20 3d 0c 1b 00 3c
       0.04123808 -0.003998337 0.03918605 0.0078189485
0002a0 dc f9 82 3d 28 65 34 3d 4d b9 34 bd 2a a3 8c bc
       0.06395313 0.044041783 -0.04412203 -0.017167646
0002b0 e5 49 82 bd 24 bd 79 3d b8 be 40 bd d9 da 1f 3d
       -0.063617505 0.060971394 -0.047056884 0.03902707
0002c0 a2 fe 5c 3c d1 e0 92 bd 31 ab c7 3c 82 40 a8 3c
       0.013488444 -0.071717866 0.024373623 0.020538572
0002d0 f8 9f 96 bd b8 c6 97 3d 89 c3 e2 bd 60 18 8d 3d
       -0.0735473 0.074109495 -0.110724516 0.06889415
0002e0 c5 30 c3 bd 3e ed 3d bb e2 ba 4b 3d 87 61 96 3d
       -0.095307864 -0.0028980519 0.049738772 0.073428206
0002f0 9c ca 6f bc a0 f6 c9 3b c3 f2 a8 3c 3e 26 0e bd
       -0.014635708 0.006163433 0.02062357 -0.03470444
000300 75 d0 bf 3b 16 ab d2 3c d5 7e 29 3d 39 b5 18 3d
       0.0058537074 0.025716346 0.041380722 0.037282202
000310 fc 13 1f bd 7e c4 13 bd 82 1a 46 be f1 75 04 3e
       -0.038837418 -0.03607606 -0.1934605 0.12935616
000320 36 62 81 bd e2 ba 81 bd 55 cc 8f 3c c9 16 d8 bd
       -0.063175604 -0.06334473 0.017553488 -0.10551221
000330 15 bd 36 3c 8b 45 58 3d f6 e3 84 3d a5 47 88 bd
       0.011153479 0.052800696 0.064887926 -0.0665429
000340 45 2f 96 3c 2d e4 d9 3c 13 7b 89 bc d3 f8 9f 3d
       0.018333087 0.02659806 -0.01678232 0.07811131
000350 78 c0 12 bd a5 8e c2 bc 0d b9 63 bd 88 4b 00 3e
       -0.035828084 -0.023749659 -0.0555964 0.12528813
000360 a9 d2 f3 3c 6d cf 5a bb b4 70 95 bd c8 ee 48 3d
       0.029763537 -0.0033387796 -0.07296887 0.049055845
000370 45 72 6a 3d ce 98 67 3d 3b 58 94 bb 43 91 84 bd
       0.057237882 0.05654221 -0.0045271195 -0.06473019
000380 d9 81 73 3c 45 c2 c3 bc c1 ad e0 bc 8e eb 0b 3d
       0.014862501 -0.023896346 -0.027426602 0.03416019
000390 7f 9f c0 3c 77 78 ab bd d8 ee 92 3d f7 9e 53 3c
       0.023513554 -0.08372586 0.07174462 0.012916318
0003a0 01 f7 d3 bb 93 eb 2f 3d 4c ae 96 bd 51 ff 03 bd
       -0.006468654 0.04294927 -0.07357463 -0.03222591
0003b0 4b f5 fd 3c d5 c2 0a 3b 06 ec db bc c5 55 e9 bd
       0.031000754 0.0021173258 -0.026845943 -0.11393312
0003c0 fd 1b 5d be 66 17 0c 3d 7f 1e 92 3c 20 a1 bc 3c
       -0.21592708 0.034202002 0.017836807 0.02302605
0003d0 6f c0 bd bd f4 02 4a 3c 4d 1e eb bd b6 1f 31 bb
       -0.092652194 0.012329806 -0.11480389 -0.0027026958
0003e0 53 93 c2 bb 7c 52 a1 bc 97 26 fd 3d 64 5f a5 3d
       -0.0059379726 -0.019692652 0.12360876 0.08074835
0003f0 a2 0f e2 3d 59 4e 3c bd 10 30 8a 3d e8 4d 00 bd
       0.11038138 -0.045973156 0.067474484 -0.031324297

fc2.bias f4 [300]
000000 64 02 07 be 98 71 91 bd 53 74 93 bd d1 f2 bd bd
       -0.13184506 -0.071017444 -0.071999215 -0.09274829
000010 6b 13 f4 bd d9 fe aa bd 9c e7 8f 3d 26 5d 00 be
       -0.11917766 -0.083493896 0.07026598 -0.12535533
000020 a9 0d 74 bd 8d 4e 8b bc 18 65 fd 3d c1 03 8f bd
       -0.05958334 -0.01700523 0.12372798 -0.06983138
000030 43 89 2e 3d 25 70 3c 3d 1a b9 65 bd 5a dd 09 be
       0.04261137 0.046005387 -0.05608473 -0.13463345
000040 72 ff d2 bd 00 70 fb bd fa 01 0a be a2 7b e1 bd
       -0.103026286 -0.12277222 -0.13477316 -0.11009909
000050 b0 db 5e bd e7 bf da bd 1e f8 db bb 26 69 1e be
       -0.05440873 -0.10681134 -0.0067129275 -0.15469798
000060 97 b5 02 be eb 86 c8 3b 98 ed ad bc 55 29 e1 3c
       -0.12764584 0.006119599 -0.021231458 0.027485529
000070 9c 39 af 3d 99 ee 93 bd 52 7c ae bd 34 7c c3 bd
       0.0855591 -0.07223243 -0.08519806 -0.09545174
000080 7f 39 be bd e7 a3 00 be 13 d5 fb bd e9 34 eb bd
       -0.0928831 -0.12562524 -0.122965 -0.11484701
000090 c1 52 99 3d f4 0f c7 bd 92 19 0a be 19 5a bb bd
       0.07486487 -0.0971984 -0.13486317 -0.09148044
0000a0 90 fb 1e 3d a9 56 d6 bd 81 14 eb bd 08 d2 c8 3d
       0.038814127 -0.10465748 -0.1147852 0.09805685
0000b0 37 a8 20 3d 22 80 28 bc 4b c4 0c be 07 6a a0 3d
       0.039222922 -0.0102844555 -0.13746755 0.07832723
0000c0 cf 99 3b 3e 43 49 03 be ee dd 07 3d 9f c6 08 be
       0.18320392 -0.12820916 0.033170633 -0.13357018
0000d0 95 bd 33 3d fa e5 2a 3b b2 20 0b bd 22 d8 d9 bd
       0.04388197 0.0026077018 -0.033966728 -0.10636927
0000e0 35 f1 d1 bd e1 7d 67 bd 66 c4 f2 bd cd a7 d8 bc
       -0.10251085 -0.05651653 -0.11853866 -0.026447201
0000f0 10 b2 a6 bc 18 7c 75 bd 31 0f 05 bd b7 f4 7a 3d
       -0.020348579 -0.0599328 -0.03248519 0.061268535
000100 e6 84 90 bd da a3 a7 3d ec 50 83 bd 0a 85 ec 3c
       -0.07056598 0.08185549 -0.06411919 0.028872032
000110 73 66 b2 bd 87 91 15 3d a3 96 2e bd 63 9a f5 bd
       -0.08710947 0.03651574 -0.042624127 -0.119923376
000120 ac 50 0d be b6 5c c5 bd 21 b4 fd bd 89 e2 e4 bd
       -0.13800305 -0.09636824 -0.123878725 -0.11176021
000130 71 22 c9 bd a1 ec 03 be f0 49 db 3b ad a5 c1 bd
       -0.09821022 -0.12883236 0.0066921636 -0.09455428
000140 b5 6f 38 bd a5 e5 bf bd 35 9f d3 bd da ed 96 bd
       -0.045028407 -0.09369973 -0.10333101 -0.07369585
000150 8f f9 22 3d b7 fd f5 bd 61 4f 28 be a7 db 9e 3d
       0.03978878 -0.12011283 -0.1643653 0.07756739
000160 96 3f fc 3d a6 36 30 bc 07 9d a6 3d 83 5d d7 bc
       0.123168156 -0.010755217 0.08135419 -0.026289707
000170 62 4c 9a bb 9e 34 f7 bd 55 a6 53 bd 2a 9b 37 bc
       -0.0047088126 -0.12070583 -0.0516723 -0.011206428
000180 f8 89 a2 bd 14 ff fa 3d 11 df 39 bd f7 0f 35 bd
       -0.07936472 0.122556835 -0.04537875 -0.04420468
000190 b6 b7 91 3d ee 0d e1 bd 9f 48 c4 3c 50 51 fd 3c
       0.07115118 -0.10988985 0.02396041 0.030922562
0001a0 44 4f 86 3d 0f e8 fc bd c4 44 31 3d da 9b dd bd
       0.065580875 -0.12348949 0.04327847 -0.10820742
0001b0 66 63 00 be cc f1 e7 bd cf 53 48 bd ef 5c ba bd
       -0.12537917 -0.11325416 -0.04890805 -0.09099757
0001c0 63 6b 0d bd a4 4f 08 be 51 d5 9d bd 31 5c 79 bb
       -0.03452624 -0.1331163 -0.077067025 -0.0038049335
0001d0 6d ed df bd 0f 0c 2b 3d d4 a6 34 3d b5 aa 59 bd
       -0.10933957 0.041759547 0.044104412 -0.053141315
0001e0 80 80 f8 bc 6f 42 d0 bd 77 16 88 3d 81 8a bd 3d
       -0.030334711 -0.10168921 0.0664491 0.09254933
0001f0 58 7a fc bd 90 4c 63 3d 2c 1f 71 3d 02 28 d3 bd
       -0.12328023 0.055492938 0.05886762 -0.10310365
000200 25 31 5e bd d0 ce d9 bd 4e be 0f be b2 4f bb bd
       -0.054246087 -0.106351495 -0.14037439 -0.0914606
000210 d4 d3 e0 bd 43 bc 71 3c 51 3c 37 bd 21 a2 83 bd
       -0.10977903 0.014754358 -0.044735257 -0.06427408
000220 fb 99 3e bd b7 0c a5 bd ed 1e cc bd 5f 3c 1d 3b
       -0.046533566 -0.08059066 -0.09966836 0.0023992283
000230 aa 68 e7 bd 2f 1f 3a bd 0d f3 17 be 82 b3 46 3d
       -0.1129926 -0.045439895 -0.1483881 0.048511036
000240 ea 85 25 3d 19 e4 1d bd 30 d9 1b be 4d ac 4d 3d
       0.040410914 -0.03854761 -0.15219569 0.050213147
000250 27 93 7c bd f2 df 95 bd 99 af 1d be ec 3f e8 bd
       -0.061663773 -0.07318105 -0.15399016 -0.11340317
000260 8e b4 79 bd db 08 e4 bd 4e 7e 06 be 3d 35 1b be
       -0.060963206 -0.111345015 -0.13134119 -0.15157028
000270 92 33 87 bc f5 8c 83 3d 38 fe 0d be 92 03 99 bd
       -0.016504083 0.0642337 -0.13866508 -0.07471384
000280 cd 2f 15 be db bc 09 be c6 25 bc 3d ce 09 4e bc
       -0.14569016 -0.13450949 0.09186892 -0.01257558
000290 ef d6 03 bd b1 eb a2 bd 9d 42 cb bd 72 74 c6 3d
       -0.0321874 -0.07955111 -0.09924815 0.09690179
0002a0 61 b9 1b bd b3 18 ca bd 5a e4 1a bd a5 96 9f bd
       -0.038018588 -0.09867992 -0.03781543 -0.07792405
0002b0 53 42 41 3c e5 7e 0a be 79 86 b5 3c 7c cb 48 3d
       0.011795598 -0.13524969 0.022158848 0.049022183
0002c0 8d be 96 bd 93 4c a4 bd f7 3d 3b 3d 6e 6d b2 bd
       -0.073605634 -0.08022418 0.04571339 -0.08712278
0002d0 88 01 df bd 45 87 00 be 7f d0 68 bd 98 69 06 be
       -0.10888964 -0.12551601 -0.056839462 -0.13126218
0002e0 37 19 13 be c5 ba fd 3d 45 a8 4f bd af c5 93 bb
       -0.14365087 0.12389139 -0.050697584 -0.0045096497
0002f0 7e d2 fc bd 0c 34 e1 bd b7 ef 07 3e 8f 49 93 bd
       -0.12344836 -0.10996255 0.13275038 -0.071917646
000300 41 76 b4 3d 2c 75 bc bd d3 7a 13 bd b0 ab 31 bd
       0.08811618 -0.09202036 -0.036005806 -0.043376625
000310 75 c7 bd bd c6 3c d8 bd 4c d4 14 be c8 38 91 bd
       -0.09266559 -0.105584666 -0.1453411 -0.07090908
000320 62 ed 91 bd 64 ad 40 bd 1d e6 85 bd c5 26 b6 bd
       -0.07125355 -0.04704036 -0.06538031 -0.088941135
000330 27 57 14 be fc aa eb bd ec c7 d3 bd 44 af 55 bd
       -0.14486371 -0.11507222 -0.103408664 -0.0521691
000340 1b 34 f4 bd 24 b2 8a bd ab 37 83 bd 22 6f c8 bd
       -0.11924001 -0.06772259 -0.06407102 -0.09786822
000350 57 83 a4 bd c8 e4 75 3d 65 c7 11 be f6 bb ef 3d
       -0.080328636 0.060032636 -0.14236219 0.117057726
000360 b3 4c 0f be 70 a0 1b be f0 72 d0 bd 9f 64 fa bc
       -0.13994102 -0.15197921 -0.101781726 -0.030565558
000370 52 a1 17 be fa 2a 8e bd e1 7c a2 bd 5e 88 1b bd
       -0.14807633 -0.06941791 -0.07933975 -0.037971847
000380 0d 78 e5 bd 10 6e 71 bd 9d 71 bc bd 39 10 25 be
       -0.112045385 -0.058942854 -0.092013575 -0.1611947
000390 bb 5f 30 3d 04 e1 77 bd 83 57 ee 3d 3d 70 86 bd
       0.043060046 -0.060517326 0.11637785 -0.065643765
0003a0 55 fa 2f 3d 56 e9 d0 bd 8a a0 80 bd 1c d6 e1 bd
       0.042963345 -0.10200755 -0.062806204 -0.11027166
0003b0 aa 71 a2 bd 39 80 fa bc 9a ab ba bd eb 23 1f be
       -0.07931836 -0.03057872 -0.09114762 -0.15541045
0003c0 62 e3 bc bd fb f3 37 bd f7 83 86 3d 33 b9 0a 3e
       -0.09223057 -0.044910412 0.06568139 0.1354721
0003d0 1e c8 0c be 1b f8 00 be 6b 8c d9 ba 78 98 d3 bd
       -0.13748214 -0.12594645 -0.0016597634 -0.103318155
0003e0 26 e4 9c 3d 15 94 10 bd 86 af 63 bc 17 cc 30 3d
       0.07660703 -0.035297472 -0.0138968285 0.043163385
0003f0 1a 47 c3 bd 69 00 9f bd 33 00 02 3d 56 d8 03 3d
       -0.09535046 -0.0776375 0.03173847 0.032188736

fc3.weight f4 [1, 300]
000000 06 80 be bd 68 45 d4 bd 2e fd d6 3d ac 09 85 bd
       -0.09301762 -0.10364801 0.10497509 -0.064959854
000010 27 6b b8 bd 52 dc 9f bd ad 36 80 3d c7 fd 03 be
       -0.09004813 -0.07805695 0.062604286 -0.12889777
000020 0b 20 89 bd 6a da 8e 3d fe 1d 6f 3d f5 33 9c bd
       -0.06695565 0.06975253 0.058378212 -0.076270975
000030 6b ef 68 3d db c5 80 3d cd 79 ac 3d 13 6e b0 bd
       0.05686895 0.06287738 0.08421669 -0.08614745
000040 3c e2 88 bd a2 f9 13 3e 93 30 1c be ae 16 be bd
       -0.06683776 0.14450696 -0.15252905 -0.092816696
000050 89 9d 1f bd 8c 92 ba bd 17 6e c8 3d 6b 94 d3 bd
       -0.038968597 -0.09109983 0.09786623 -0.10331043
000060 68 c0 d6 3d e0 f3 54 3d 31 0b 81 3d 69 59 6e 3d
       0.10485917 0.05199039 0.06300963 0.058190737
000070 95 da 6a 3d c3 27 8f bd 8f 78 19 3e 20 09 d4 bd
       0.057337362 -0.06990006 0.14987396 -0.10353303
000080 4e 54 9d bd cc bd ca bd cc 55 9a bd 3a 20 cc bd
       -0.076820955 -0.09899482 -0.07535896 -0.09967084
000090 69 0f 59 3d a6 20 bb bd 5e 3a 81 bd 9f 2a d0 bd
       0.052993212 -0.091370866 -0.06309961 -0.10164379
0000a0 4c da 7f 3d 62 6a 06 3e 3f ca 2f be cf 19 77 3d
       0.062464043 0.1312652 -0.17166995 0.060327347
0000b0 68 2c 62 3d 8b 53 90 3d b3 18 6b bd 05 8b 47 3d
       0.05521813 0.070471846 -0.057396602 0.048716564
0000c0 72 af 8f 3d 30 4a 77 bd fc 0f 52 3d 19 3c b3 bd
       0.070158854 -0.060373485 0.051284775 -0.08751697
0000d0 09 4e 87 3d 74 5c 9d 3d 75 8a c0 3d ea f8 04 be
       0.06606681 0.0768365 0.094014086 -0.12985578
0000e0 fe 89 e1 bd a0 97 7a 3d fd 0e d4 bd ac 9e 36 bd
       -0.11012648 0.061179757 -0.10354421 -0.044584915
0000f0 da c6 84 3d 49 9a 74 bd 80 45 41 3d ea 1d 9a 3d
       0.064832404 -0.05971745 0.04718542 0.07525237
000100 b5 28 d5 bd d4 49 7b 3d 9e 99 89 bd 68 6c 4c 3d
       -0.10408155 0.061349705 -0.06718753 0.04990807
000110 e7 3c b2 bd 4e 1f 83 3d af 99 7e 3d 6a c8 ea bd
       -0.087030225 0.06402455 0.062158283 -0.11464007
000120 c7 ed 97 bd 55 5a 1c be 69 df 98 bd dd b4 e0 bd
       -0.07418399 -0.15268834 -0.07464487 -0.10971997
000130 e1 8e 90 bd 86 26 be bd e2 1d 81 3d e2 7c c9 bd
       -0.07058502 -0.092846915 0.06304528 -0.09838273
000140 94 a1 e3 bd e6 c9 cb bd 57 1d 8f bd c8 ab a1 bd
       -0.11114803 -0.099506184 -0.06988018 -0.07894093
000150 a0 88 63 3d a4 fa f9 3d de 62 66 bd 0a 23 35 3d
       0.055550218 0.12206009 -0.05624663 0.04422287
000160 07 9d 5d 3d b6 26 ab 3d 77 32 63 3d 4c 3a 8b 3d
       0.05410483 0.08356993 0.05546805 0.067982286
000170 8e 7f 6b 3d d5 b2 8f bd 16 53 b7 3d 1c cb 80 3d
       0.057494693 -0.070165314 0.08951394 0.0628874
000180 38 7e 8f bd 5d 89 8b 3d 71 7a b0 3d 45 93 b0 3d
       -0.07006496 0.06813309 0.08617104 0.086218394
000190 fe 87 38 3d 0e 87 c6 bd 3b ac 77 3d ce 95 75 3d
       0.045051567 -0.096937284 0.060466986 0.059957318
0001a0 63 81 5d 3d 87 30 fe bd 9e 2f bb 3d d3 80 9b bd
       0.05407847 -0.124115996 0.09139942 -0.07592931
0001b0 91 4f c2 bd 12 4d ad bd 8e 63 99 bd 40 a2 01 be
       -0.09487832 -0.084619656 -0.07489692 -0.1265955
0001c0 f2 42 5e 3d 0e 4f c3 bd 51 4e dd bd 35 6c 49 3d
       0.054263063 -0.09536563 -0.10805953 0.04917546
0001d0 8c ff 90 bd d8 17 96 3d e9 0f 9a 3d d0 ef b5 3d
       -0.07079992 0.073287666 0.07522566 0.08883631
0001e0 98 0f 5a 3d 1f 30 93 bd cd 8c 8c 3d 16 16 56 3d
       0.053237528 -0.07186913 0.06862793 0.052267157
0001f0 ff ac e1 bd e9 f1 42 3d 7e 5d 53 3d 8e b2 af bd
       -0.110193245 0.047593985 0.051602833 -0.085789785
000200 2f 89 da bd e5 5f ab bd 7e bf e5 bd 00 c6 a7 bd
       -0.10670697 -0.083679 -0.11218165 -0.081920624
000210 ac 2e a2 bd a0 9f 54 3d a5 0e 74 3d 76 08 9a bd
       -0.07919058 0.051910043 0.05958428 -0.07521145
000220 54 13 87 3d 9a 26 73 bd 36 2a 95 bd de ee 87 3d
       0.065954834 -0.059362985 -0.07283442 0.06637357
000230 01 d4 b4 bd ea 6f d7 bd 74 09 36 be 89 38 6a 3d
       -0.08829499 -0.10519393 -0.17777044 0.057182822
000240 71 32 56 3d 43 81 e0 3d 83 a2 7b bd e8 f8 7c 3d
       0.0522942 0.10962155 -0.06143428 0.061760813
000250 35 4b be 3d 96 94 85 bd 23 f6 97 bd bc 10 6e bd
       0.09291688 -0.06522481 -0.07419994 -0.058121428
000260 9b 3e cb bd 8b eb c0 bd 41 4c c8 bd ed c3 96 bd
       -0.099240504 -0.09419926 -0.09780169 -0.073615886
000270 c3 4d 86 3d 5b 0f 50 3d f8 47 b5 bd e9 a4 e3 bd
       0.065578006 0.050795894 -0.088516176 -0.111154385
000280 8f 80 a9 bd 52 c8 a4 bd 8c 2b 6d 3d 66 9b 5e 3d
       -0.08276474 -0.080460206 0.057902858 0.05434742
000290 f0 ec 3a 3d c9 dc ab bd e1 7e 0c 3e b1 fe 45 3d
       0.045636117 -0.08391721 0.13720275 0.048338596
0002a0 58 59 65 3d 61 e6 29 3e 9f 90 20 3e 15 6b cc bd
       0.055993408 0.16591789 0.15680169 -0.09981362
0002b0 6e 77 8e 3d 56 0a e0 bd 76 55 83 3d cd 83 1c 3d
       0.06956373 -0.109394714 0.06412785 0.038211633
0002c0 1d 5b a7 3d d6 86 53 3e d3 44 97 3d bc cd 43 bd
       0.08171675 0.20656905 0.07386174 -0.047803625
0002d0 6f 6d 9e bd bf 59 dd bd 07 35 6d bd b4 27 bd bd
       -0.077357166 -0.10808133 -0.0579119 -0.092360884
0002e0 ce 66 e4 bd 62 e0 5c 3d 01 cb 83 bd c3 f4 98 3d
       -0.11152421 0.053924926 -0.06435204 0.074685596
0002f0 ff c2 25 be 8d 34 89 bd 08 a3 6b 3d 1f d3 17 3e
       -0.16187666 -0.066994764 0.057528526 0.1482663
000300 78 4e 62 3d de 0b a0 bd 9e c2 c3 3d 01 1d b5 bd
       0.055250615 -0.078147635 0.09558605 -0.08843423
000310 a2 8b d5 bd 63 7a d3 bd 39 2c b7 bd 11 b0 a6 bd
       -0.104270235 -0.10326078 -0.08943982 -0.08139051
000320 38 23 89 bd 5e bc a3 3d 79 c8 aa bd ba db 96 bd
       -0.066961706 0.079949126 -0.083390184 -0.07366128
000330 36 f3 84 bd a4 ef 98 bd 28 2a 94 bd ab 6a ab bd
       -0.06491701 -0.07467583 -0.07234603 -0.08369955
000340 3d c9 9b bd 11 7f 6b bd 80 9e c6 3d da 9b 01 be
       -0.076067425 -0.057494227 0.096982 -0.12657109
000350 bf 68 93 bd 11 6a 85 3d 2b b0 8f bd a0 cb 84 3d
       -0.07197713 0.06514371 -0.07016023 0.06484151
000360 cd b7 79 bd 63 35 ad bd ce 18 b0 bd 7f d5 a8 bd
       -0.0609663 -0.08457448 -0.08598481 -0.08243846
000370 69 42 bd bd 40 66 be 3d 5a ac cd 3d 4c 69 7b 3d
       -0.09241182 0.092968464 0.10042639 0.061379716
000380 96 74 a7 bd 3f 7a 8d bd 46 8b 93 bd 65 92 68 be
       -0.08176534 -0.06908082 -0.07204299 -0.22712095
000390 91 ec 58 3d 3e f6 b5 bd 35 5f 70 3d f7 06 87 bd
       0.052959982 -0.088848576 0.058684547 -0.06593125
0003a0 bd 26 5a 3d 09 79 8c bd de 05 98 bd 25 dd 8c bd
       0.0532596 -0.06859023 -0.07422994 -0.068781175
0003b0 d6 81 b0 3d c5 b5 dc 3d 63 c8 63 bd 92 28 13 be
       0.08618514 0.10776857 -0.055611026 -0.14370945
0003c0 c8 97 ad 3d 49 e0 cc 3d 17 e3 63 3d dd b8 56 3d
       0.084762156 0.100037165 0.05563649 0.052422393
0003d0 6c 99 f2 bd bc 4e 86 bd c9 03 45 3d c8 d2 c3 bd
       -0.11845669 -0.06557986 0.048099313 -0.09561688
0003e0 2c 50 4a 3d 3c 7f 96 bd 65 fb 95 3d 3d b3 42 3d
       0.049392864 -0.07348487 0.0732334 0.047534216
0003f0 16 c5 ab bd 93 e2 4b bd 49 37 57 3d 49 2e aa 3d
       -0.083872005 -0.049776625 0.05254296 0.083096094

bn1.weight f4 [33]
000000 6f 58 8b 3e 06 df 08 3f 35 06 e0 3e 2f 15 f0 3e
       0.27215907 0.53465307 0.43754736 0.46891162
000010 1d 37 db 3e 0b ee d5 3e 49 af e0 3e df 67 e5 3d
       0.42815486 0.41783175 0.43883732 0.112014525
000020 53 ac e6 3d de ba 3c 3e c4 84 7c 3e 44 28 2a 3e
       0.11263337 0.18430659 0.24660021 0.16616923
000030 50 8a 54 3e c5 ee 47 3f bd 61 11 3f a0 20 09 3f
       0.20755887 0.7809871 0.5678976 0.53565407
000040 d1 86 cd 3e 0d 82 24 3f 81 cb 09 3f 3f 4b 06 3f
       0.4014192 0.6426094 0.5382615 0.52458566
000050 a3 45 a3 3d 88 3d a2 3d 72 a2 09 3e 25 ed 01 3f
       0.079722665 0.079218924 0.13440874 0.5075248
000060 a2 5d a3 3e cf 5b a8 3e 34 1c 6e 3f c5 bb 43 3f
       0.31907374 0.32882544 0.93011785 0.7645839
000070 aa f4 31 3f d5 47 30 3f 4c 63 1d 3e 3b fd 26 3f
       0.6951395 0.68859607 0.1536991 0.6523015
000080 06 40 42 3f
       0.7587894

bn1.bias f4 [33]
000000 24 41 a7 3d e4 3b d0 3d e9 b4 ff 3c a9 fa f5 3c
       0.081667215 0.10167673 0.031214194 0.03002675
000010 b2 bf 90 3b df 3f db bc ab 4e 11 3d 43 9a 2e bd
       0.004417383 -0.026763855 0.035475414 -0.042627584
000020 f3 7c f5 3b 17 d4 92 bc bc f6 96 3d 92 ed 4f bc
       0.0074917017 -0.017923398 0.073712796 -0.0126909185
000030 33 93 42 bc cf 7c e6 3d 4c 10 c7 3d 1b 65 1c bd
       -0.011875915 0.11254274 0.09719905 -0.03818236
000040 34 13 5b bd 33 d8 66 bb a6 5d c3 3d 5a 6e a1 bc
       -0.05348511 -0.003522408 0.095393464 -0.01970594
000050 7f 14 68 bb b1 13 c6 3a 6c 76 d5 3c 56 c8 ac bc
       -0.0035412607 0.001511207 0.026057445 -0.021091621
000060 60 10 7a bd 64 d0 c5 3c 5b 60 dc 3d cf 7a 2a bd
       -0.061050773 0.02414722 0.10760566 -0.041621026
000070 a7 8f 58 bd ec 13 d9 bd c3 8b da bd c0 93 1b ba
       -0.052871373 -0.10599503 -0.10671189 -0.0005934797
000080 b4 17 97 3d
       0.07377568

bn1.running_mean f4 [33]
000000 14 c2 af 3c 5c 26 12 c0 49 c8 28 3e e7 19 12 3f
       0.021454848 -2.2835913 0.16482653 0.57070774
000010 7c 43 1e 3c 5b ce 21 3d ff cb c7 bb fb 42 82 bd
       0.009659644 0.039503437 -0.0060973163 -0.06360432
000020 ec 55 28 bc 9b 83 f9 bc 11 7b c5 bd d9 55 59 bd
       -0.010274392 -0.030458262 -0.09642614 -0.053060386
000030 8b 25 44 bb 27 26 e6 bd da 03 4b c0 9c 56 59 3e
       -0.0029929604 -0.11237746 -3.17211 0.21224445
000040 68 86 e2 3d 5c df b2 bd 0f f1 f8 bd c9 84 30 be
       0.11060792 -0.08734009 -0.12155353 -0.17238154
000050 9e d1 67 be 27 d6 93 bd 45 eb 9d 3d 71 f7 2f be
       -0.22638556 -0.07218581 0.0771089 -0.17184235
000060 e7 d8 e4 bd c5 26 fa bc 7f c8 38 3e fc ff 7f bf
       -0.11174183 -0.030536065 0.18045233 -0.99999976
000070 fb f6 8e be 00 00 00 00 fc ff 7f 3f 00 00 00 00
       -0.27922806 0.0 0.99999976 0.0
000080 fa 6c c4 bb
       -0.0059944363

bn1.running_var f4 [33]
000000 b7 1d 93 40 29 ac f3 3f ae e5 89 40 a7 a7 b0 3e
       4.5973773 1.9036914 4.309287 0.3450291
000010 1d e5 bb 3d ea b3 ed 3d 96 31 f7 3d da dc 9f 3f
       0.09174559 0.116065815 0.12070005 1.2489274
000020 2c 0a 0d 3e 60 d4 86 3e b9 37 99 40 c7 8a b3 40
       0.13773412 0.26333904 4.788052 5.6106906
000030 58 a6 ba 40 31 e2 9e 41 c3 9e d1 40 7b 3e 99 41
       5.8328056 19.860445 6.55063 19.155508
000040 94 fc 2b 3e 10 99 9c 3e 7c 7c 2a 3e 7b e2 95 3e
       0.1679557 0.30585527 0.1664905 0.29274353
000050 49 29 9e 40 04 96 c6 3f b0 da ea 3f 8d 38 8b 41
       4.9425397 1.5514531 1.8347988 17.402613
000060 cc 3c d0 41 ef 78 99 41 c9 bf f7 41 04 00 00 00
       26.029686 19.18405 30.968645 6e-45
000070 6c 11 04 42 04 00 00 00 04 00 00 00 04 00 00 00
       33.017014 6e-45 6e-45 6e-45
000080 01 d1 a1 3e
       0.3160477

bn2.weight f4 [400]
000000 45 d3 e7 3e d2 1f e6 3e bd 0f a9 3e 62 00 40 3f
       0.45278373 0.44946152 0.3301982 0.75000584
000010 e1 6a 02 3f da fb 15 3f 2d a2 3a 3f e5 3f 98 3e
       0.50944334 0.5858742 0.7290371 0.29736248
000020 2b c8 e5 3e d2 7a b0 3e ed d9 c4 3e c0 71 a8 3e
       0.4487928 0.34468704 0.38447514 0.32899284
000030 56 95 0d 3f d0 b2 34 3f 32 92 a3 3e 73 05 64 3f
       0.55305994 0.70585346 0.31947476 0.89070815
000040 f3 64 d9 3e b9 27 21 3f 78 37 e3 3e e2 8e 33 3f
       0.4245983 0.62951237 0.44378257 0.70139897
000050 76 eb 08 3f ef 3d 41 3f 81 ef ec 3e 93 c1 d8 3e
       0.53484285 0.7548513 0.46276477 0.42335185
000060 0a 8b 3a 3f 2d 40 f5 3e 32 46 28 3f de 27 98 3e
       0.72868407 0.47900525 0.6573211 0.29717916
000070 f6 7d 70 3e 98 c4 ba 3e 58 0b c4 3e 7e ac 2f 3f
       0.2348555 0.36478114 0.38289905 0.6862258
000080 b2 ea ef 3e 9e 12 0e 3f 40 ac ba 3e a2 6d 2f 3f
       0.46858746 0.5549716 0.3645954 0.6852666
000090 80 15 08 3f 63 1f 5f 3d d8 4d e5 3e 1d 42 1f 3f
       0.53157806 0.054473292 0.44785953 0.62210256
0000a0 fa 63 a9 3e 9d f3 9a 3e 61 f2 96 3e 8e b7 a0 3e
       0.3308409 0.30263987 0.29481795 0.3139004
0000b0 1a 0e 1f 3e d9 d9 97 be 5b 6b 22 3f d6 57 43 3e
       0.15532723 -0.29658392 0.6344506 0.19076476
0000c0 c1 41 c6 3e bf 8e 24 3f 0b ec bd 3e 8b 99 9e 3e
       0.3872204 0.64280313 0.3709415 0.3097652
0000d0 5a 59 8f 3e 09 8e 56 3f fc ce 4d 3e ec de 78 3e
       0.27997857 0.8381048 0.2009849 0.24303788
0000e0 fd 64 39 3f 67 99 b7 3e c4 48 f5 3e 1f 9e 7e 3e
       0.7241972 0.35859224 0.47907078 0.24865006
0000f0 bf d5 05 3f 5d 70 ee 3e 3a b1 d1 3e 4f 0a 48 3f
       0.52279276 0.465701 0.40955526 0.7814073
000100 ec 02 9c 3e 26 f6 3e 3f 86 91 26 3e 5c b8 f0 3e
       0.3047098 0.7459434 0.1626645 0.47015655
000110 2a 61 83 3e 01 08 31 3f 6d f4 6f 3e 00 a9 09 3f
       0.25660068 0.6915284 0.23433085 0.537735
000120 a7 c4 1f 3f 23 15 5c 3f d0 c5 1f 3f c4 3f 41 3f
       0.6240944 0.8596975 0.6241121 0.75487924
000130 29 ff 0b 3f 69 f1 88 3e 4d 93 13 3f be 52 13 3f
       0.5468622 0.2674668 0.5764664 0.5754813
000140 0a 66 fd 3e 6e 1b 15 3f 75 60 04 3f f8 0e cc 3e
       0.49491912 0.5824498 0.5170968 0.3985517
000150 81 50 ae 3e 8c 09 0a 3f 5c d1 1a 3f 1c 9f 33 3f
       0.34045795 0.5392082 0.6047571 0.70164657
000160 f4 20 d3 3e 73 0b 45 3f 0d 44 18 3f dd f1 14 3f
       0.4123608 0.76970595 0.5947884 0.58181554
000170 03 b9 c0 3e 92 f9 4b 3f 46 3b 9d 3e e5 84 f1 3e
       0.37641153 0.7967769 0.30709285 0.47171703
000180 4f 3b 5d 3f 1a 49 ba 3e a9 8e 21 3f d1 53 fb 3e
       0.8641862 0.36383897 0.6310831 0.49087384
000190 9a fd 03 3f 82 1b af 3e a7 20 20 3f 79 47 ce 3e
       0.5155884 0.34200674 0.62549824 0.40288904
0001a0 59 87 01 3f 0a 4b 29 3f 0e 92 13 3f 20 78 35 3f
       0.5059715 0.66130126 0.57644737 0.7088642
0001b0 d0 2b 00 3f 65 a2 17 3f bc ce 40 3f 69 88 3b 3f
       0.5006685 0.5923217 0.7531545 0.7325502
0001c0 4a a5 1d 3f 9a 2c 14 3f e7 07 e0 3e c5 aa c5 3e
       0.61580336 0.57880557 0.4375603 0.3860685
0001d0 e2 46 66 3f 1f f9 28 3f 92 a4 99 3e e6 6a a0 3e
       0.8995191 0.6600513 0.3000837 0.31331557
0001e0 4f fd b6 3e 8e 75 11 3f d8 38 67 3e 2f 19 b8 3e
       0.35740134 0.5682 0.22580278 0.35956714
0001f0 89 59 f1 3e c3 3b eb 3e 09 a3 b2 3e 52 0e d0 3e
       0.47138622 0.45944032 0.3489001 0.40635926
000200 72 f0 15 3f 8e aa d2 3e 83 41 0b 3f 65 27 11 3f
       0.58570015 0.41145748 0.5439684 0.56700736
000210 00 ad bd 3d 53 50 95 3e 25 56 28 3f 7a 2d f3 3e
       0.09261513 0.29162845 0.65756446 0.47495633
000220 c1 bc 00 3f 51 22 59 3f 9a 1b 84 3e 4c df bd 3e
       0.50288016 0.8481799 0.25802308 0.37084424
000230 a7 9e 2a 3f 38 d9 b6 3e af 65 6d 3f b9 98 0a 3f
       0.66648334 0.357126 0.9273328 0.54139286
000240 2f f8 88 3e a5 50 04 3f c4 aa 9a 3e 7d 56 a7 3e
       0.2675185 0.51685554 0.3020841 0.32683173
000250 ba 22 35 3f 8f a8 57 3f 5c ff da 3e 56 c3 39 3f
       0.70756114 0.84241575 0.4277295 0.72563684
000260 86 cc f7 3e 31 7a 8d 3e ac 24 26 3f ff 22 e6 3e
       0.48398226 0.27632287 0.64899707 0.44948575
000270 f8 19 8d 3e cb 99 9e 3e 6b 06 67 3e 69 66 73 3f
       0.27558875 0.3097671 0.22561042 0.9507814
000280 77 96 e2 3e 62 a7 07 3f 81 9a e1 3e 7b 9c 19 3f
       0.4425542 0.5298978 0.4406319 0.60004395
000290 32 01 ad 3e c5 15 53 3f af 12 27 3f 46 fe 2d 3f
       0.33789974 0.8245509 0.65262884 0.67966115
0002a0 df 65 f4 3e b5 fa f2 3e 0e 9d 0d 3f f7 86 02 3f
       0.4773397 0.474569 0.5531777 0.5098719
0002b0 3c 66 4f 3f ee 33 c1 3e ba 4f 19 3f 1c 6e cc 3e
       0.8101537 0.37734932 0.5988728 0.39927757
0002c0 37 3d e1 3e 70 27 00 3f 09 7c 27 3f 0a 40 53 3f
       0.43992016 0.50060177 0.6542364 0.8251959
0002d0 c5 08 50 3e cd 00 00 3f af 59 d3 3e 57 9c a8 3e
       0.20315845 0.5000122 0.4127936 0.32931778
0002e0 c2 0f 30 3f 3e 5d b6 3e 13 04 6d 3e b5 ad 1c 3f
       0.68774045 0.35618013 0.23146085 0.61202556
0002f0 18 e3 86 3e 91 d2 0e 3f 4f 0c 46 3f e7 79 0c 3f
       0.26345134 0.5579005 0.7736253 0.5487351
000300 50 cf 59 3f 85 e6 12 3f 50 fe 27 3f 9f 95 2e 3f
       0.8508196 0.57382995 0.65622425 0.68197054
000310 d5 3d c1 3e 7e e8 bd 3e 92 a2 8c 3e f7 bd 0b 3f
       0.37742487 0.3709144 0.2746778 0.5458674
000320 56 1c 33 3f 15 c4 d8 3e 91 c1 92 3e fa 6e dd 3e
       0.6996511 0.423371 0.28663304 0.4324873
000330 37 cc 9e 3e 94 e7 0b 3f 31 b1 34 3f ba 53 1a 3f
       0.3101518 0.54650235 0.7058287 0.60284007
000340 d1 c5 31 3f 41 d6 c5 3e 97 f4 21 3f a6 df f6 3e
       0.6944247 0.38640025 0.6326384 0.48217505
000350 c1 b3 35 3f ed 93 c1 3e b1 09 1a 3f 44 93 37 3f
       0.7097741 0.3780817 0.6017104 0.71709085
000360 6b c6 d3 3e 38 6b 46 3f ab 75 e7 3e 10 4d 99 3e
       0.41362318 0.7750735 0.4520696 0.29941607
000370 98 08 9b 3e 6e cc 94 3e 1a 49 3a 3f a3 12 c7 3e
       0.30279994 0.29062217 0.72767794 0.38881406
000380 11 6b 10 3f 23 cb bc 3e 86 e9 ae 3e 1d 41 ef 3e
       0.5641337 0.3687373 0.3416254 0.46729365
000390 50 22 eb 3e 12 f3 fe 3e 2e 8c 95 3e 8c 3a ff 3e
       0.45924616 0.49794823 0.2920851 0.49849355
0003a0 3a 29 18 3f 43 57 bf 3e 30 8c 23 3f 4f 68 1c 3f
       0.59437907 0.37371263 0.63885784 0.6109666
0003b0 d6 ce a5 3e 79 b3 bd 3e 02 6d 63 3f d8 10 d9 3e
       0.32384366 0.3705099 0.8883821 0.42395663
0003c0 a4 fc a5 3e ba b4 60 3f 77 ee 1a 3f 1f 93 e0 3e
       0.32419312 0.87775767 0.6052012 0.43862244
0003d0 81 c8 0c 3f 7c b0 2b 3f 09 62 01 3f be 96 fc 3e
       0.54993445 0.6706617 0.50540215 0.49333757
0003e0 8e b4 23 3f aa 6e f2 3e 74 a9 0d 3f 13 8c c9 3e
       0.6394738 0.47350055 0.5533669 0.3936468
0003f0 e8 8d 1d 3f 54 54 bb 3e 98 f0 37 3e bd 06 54 3f
       0.61544657 0.36587775 0.17962873 0.8282278
